ST Edge AI Core v2.2.0-20266 2adc00962
Created date          : 2026-07-03 19:11:44
Parameters            : generate --target stm32h7 --name network -m E:/VScodeProjects/QS/YOLOv8forSTM/v6_results/student_best_320.onnx --compression high --optimization balanced --allocate-inputs --allocate-outputs --split-weights --output E:/VScodeProjects/QS/STM32H743IIT6/H743_QSPI_XIP_1/X-CUBE-AI/App/ --workspace C:/Users/29264/AppData/Local/Temp/stedgeai_cli_320

Exec/report summary (generate)
--------------------------------------------------------------------------------------------
model file         :   E:\VScodeProjects\QS\YOLOv8forSTM\v6_results\student_best_320.onnx   
type               :   onnx                                                                 
c_name             :   network                                                              
compression        :   high                                                                 
options            :   allocate-inputs, allocate-outputs, split-weights                     
optimization       :   balanced                                                             
target/series      :   stm32h7                                                              
workspace dir      :   C:\Users\29264\AppData\Local\Temp\stedgeai_cli_320                   
output dir         :   E:\VScodeProjects\QS\STM32H743IIT6\H743_QSPI_XIP_1\X-CUBE-AI\App     
model_fmt          :   float                                                                
model_name         :   student_best_320                                                     
model_hash         :   0x40ab45c0d0d518b5e7e9a9a5d8fb5e96                                   
params #           :   2,598,135 items (9.91 MiB)                                           
--------------------------------------------------------------------------------------------
input 1/1          :   'images', f32(1x3x320x320), 1200.00 KBytes, activations              
output 1/1         :   'output0_Transpose_0', f32(1x32x2100), 262.50 KBytes, activations    
macc               :   1,132,046,565                                                        
weights (ro)       :   10,392,528 B (9.91 MiB) (194 segments) / -12(-0.0%) vs float model   
activations (rw)   :   6,144,000 B (5.86 MiB) (1 segment) *                                 
ram (total)        :   6,144,000 B (5.86 MiB) = 6,144,000 + 0 + 0                           
--------------------------------------------------------------------------------------------
(*) 'input'/'output' buffers are allocated in the activations buffer

Model name - student_best_320
------ -------------------------------------------------------- -------------------------------------------------------------- ------------------- ------------- -------------------------------- --- ------------------ ---------------------- ------------------------------------------------------------ 
m_id   layer (type,original)                                    oshape                                                         param/size                   macc                     connected to   | c_size             c_macc                 c_type                                                       
------ -------------------------------------------------------- -------------------------------------------------------------- ------------------- ------------- -------------------------------- --- ------------------ ---------------------- ------------------------------------------------------------ 
129    _model_10_m_m_0_at..1_output_0 (Placeholder, Mul)        []                                                             1/4                                                                  | +12(+300.0%)       +40,000(+100.0%)       ScaleBias_[131]                                              
------ -------------------------------------------------------- -------------------------------------------------------------- ------------------- ------------- -------------------------------- --- ------------------ ---------------------- ------------------------------------------------------------ 
311    _model_23_Constant_12_output_0 (Placeholder, Sub)        [b:1,h:2100,c:2]                                               4,200/16,800                                                         |                    +4,200(+100.0%)        Eltwise/sub_[312]                                            
------ -------------------------------------------------------- -------------------------------------------------------------- ------------------- ------------- -------------------------------- --- ------------------ ---------------------- ------------------------------------------------------------ 
1      _model_23_Constant_13_output_0 (Placeholder, Add)        [b:1,h:2100,c:2]                                               4,200/16,800                                                         | -15,008(-89.3%)    +11,092,816(+100.0%)   Conv2D_/Transpose_[o][1, 319]                                
       _model_23_Constant_14_output_0 (Placeholder, Div)        []                                                             1/4                                                                  | -4(-100.0%)                               
------ -------------------------------------------------------- -------------------------------------------------------------- ------------------- ------------- -------------------------------- --- ------------------ ---------------------- ------------------------------------------------------------ 
2      _model_23_Constant_15_output_0 (Placeholder, Mul)        [b:1,c:2100]                                                   2,100/8,400                                                          | -8,400(-100.0%)    +4,249,600(+100.0%)    Transpose_/Nonlinearity_[0, 2]                               
------ -------------------------------------------------------- -------------------------------------------------------------- ------------------- ------------- -------------------------------- --- ------------------ ---------------------- ------------------------------------------------------------ 
0      images (Input, )                                         [b:1,h:320,w:320,c:3]                                                                                                               |                                           
------ -------------------------------------------------------- -------------------------------------------------------------- ------------------- ------------- -------------------------------- --- ------------------ ---------------------- ------------------------------------------------------------ 
1      _model_0_conv_Conv_output_0 (Conv2D, Conv)               [b:1,h:160,w:160,c:16]                                         448/1,792              11,059,216                           images   | -1,792(-100.0%)    -11,059,216(-100.0%)   
------ -------------------------------------------------------- -------------------------------------------------------------- ------------------- ------------- -------------------------------- --- ------------------ ---------------------- ------------------------------------------------------------ 
2      _model_0_act_Sigmoid_output_0 (Nonlinearity, Sigmoid)    [b:1,h:160,w:160,c:16]                                                                 4,096,000      _model_0_conv_Conv_output_0   |                    -4,096,000(-100.0%)    
------ -------------------------------------------------------- -------------------------------------------------------------- ------------------- ------------- -------------------------------- --- ------------------ ---------------------- ------------------------------------------------------------ 
3      _model_0_act_Mul_output_0 (Eltwise, Mul)                 [b:1,h:160,w:160,c:16]                                                                   409,600      _model_0_conv_Conv_output_0   |                                           Eltwise/mul_[3]                                              
                                                                                                                                                                    _model_0_act_Sigmoid_output_0   | 
------ -------------------------------------------------------- -------------------------------------------------------------- ------------------- ------------- -------------------------------- --- ------------------ ---------------------- ------------------------------------------------------------ 
4      _model_1_conv_Conv_output_0 (Conv2D, Conv)               [b:1,h:80,w:80,c:32]                                           4,640/18,560           29,491,232        _model_0_act_Mul_output_0   |                                           Conv2D_[4]                                                   
------ -------------------------------------------------------- -------------------------------------------------------------- ------------------- ------------- -------------------------------- --- ------------------ ---------------------- ------------------------------------------------------------ 
5      _model_1_act_Sigmoid_output_0 (Nonlinearity, Sigmoid)    [b:1,h:80,w:80,c:32]                                                                   2,048,000      _model_1_conv_Conv_output_0   |                                           Nonlinearity_[5]                                             
------ -------------------------------------------------------- -------------------------------------------------------------- ------------------- ------------- -------------------------------- --- ------------------ ---------------------- ------------------------------------------------------------ 
6      _model_1_act_Mul_output_0 (Eltwise, Mul)                 [b:1,h:80,w:80,c:32]                                                                     204,800      _model_1_conv_Conv_output_0   |                                           Eltwise/mul_[6]                                              
                                                                                                                                                                    _model_1_act_Sigmoid_output_0   | 
------ -------------------------------------------------------- -------------------------------------------------------------- ------------------- ------------- -------------------------------- --- ------------------ ---------------------- ------------------------------------------------------------ 
7      _model_2_cv1_conv_..v_output_0 (Conv2D, Conv)            [b:1,h:80,w:80,c:32]                                           1,056/4,224             6,553,632        _model_1_act_Mul_output_0   |                                           Conv2D_[7]                                                   
------ -------------------------------------------------------- -------------------------------------------------------------- ------------------- ------------- -------------------------------- --- ------------------ ---------------------- ------------------------------------------------------------ 
8      _model_2_cv1_act_S..d_output_0 (Nonlinearity, Sigmoid)   [b:1,h:80,w:80,c:32]                                                                   2,048,000   _model_2_cv1_conv_..v_output_0   |                                           Nonlinearity_[8]                                             
------ -------------------------------------------------------- -------------------------------------------------------------- ------------------- ------------- -------------------------------- --- ------------------ ---------------------- ------------------------------------------------------------ 
9      _model_2_cv1_act_Mul_output_0 (Eltwise, Mul)             [b:1,h:80,w:80,c:32]                                                                     204,800   _model_2_cv1_conv_..v_output_0   |                                           Eltwise/mul_[9]                                              
                                                                                                                                                                   _model_2_cv1_act_S..d_output_0   | 
------ -------------------------------------------------------- -------------------------------------------------------------- ------------------- ------------- -------------------------------- --- ------------------ ---------------------- ------------------------------------------------------------ 
10     _model_2_Split_output_0 (Split, Split)                   [b:1,h:80,w:80,c:16][b:1,h:80,w:80,c:16]                       2/8                                  _model_2_cv1_act_Mul_output_0   | -4(-50.0%)                                Split_[10]                                                   
------ -------------------------------------------------------- -------------------------------------------------------------- ------------------- ------------- -------------------------------- --- ------------------ ---------------------- ------------------------------------------------------------ 
11     _model_2_m_0_cv1_c..v_output_0 (Conv2D, Conv)            [b:1,h:80,w:80,c:8]                                            1,160/4,640             7,372,808          _model_2_Split_output_0   |                                           Conv2D_[11]                                                  
------ -------------------------------------------------------- -------------------------------------------------------------- ------------------- ------------- -------------------------------- --- ------------------ ---------------------- ------------------------------------------------------------ 
12     _model_2_m_0_cv1_a..d_output_0 (Nonlinearity, Sigmoid)   [b:1,h:80,w:80,c:8]                                                                      512,000   _model_2_m_0_cv1_c..v_output_0   |                                           Nonlinearity_[12]                                            
------ -------------------------------------------------------- -------------------------------------------------------------- ------------------- ------------- -------------------------------- --- ------------------ ---------------------- ------------------------------------------------------------ 
13     _model_2_m_0_cv1_a..l_output_0 (Eltwise, Mul)            [b:1,h:80,w:80,c:8]                                                                       51,200   _model_2_m_0_cv1_c..v_output_0   |                                           Eltwise/mul_[13]                                             
                                                                                                                                                                   _model_2_m_0_cv1_a..d_output_0   | 
------ -------------------------------------------------------- -------------------------------------------------------------- ------------------- ------------- -------------------------------- --- ------------------ ---------------------- ------------------------------------------------------------ 
14     _model_2_m_0_cv2_c..v_output_0 (Conv2D, Conv)            [b:1,h:80,w:80,c:16]                                           1,168/4,672             7,372,816   _model_2_m_0_cv1_a..l_output_0   |                                           Conv2D_[14]                                                  
------ -------------------------------------------------------- -------------------------------------------------------------- ------------------- ------------- -------------------------------- --- ------------------ ---------------------- ------------------------------------------------------------ 
15     _model_2_m_0_cv2_a..d_output_0 (Nonlinearity, Sigmoid)   [b:1,h:80,w:80,c:16]                                                                   1,024,000   _model_2_m_0_cv2_c..v_output_0   |                                           Nonlinearity_[15]                                            
------ -------------------------------------------------------- -------------------------------------------------------------- ------------------- ------------- -------------------------------- --- ------------------ ---------------------- ------------------------------------------------------------ 
16     _model_2_m_0_cv2_a..l_output_0 (Eltwise, Mul)            [b:1,h:80,w:80,c:16]                                                                     102,400   _model_2_m_0_cv2_c..v_output_0   |                                           Eltwise/mul_[16]                                             
                                                                                                                                                                   _model_2_m_0_cv2_a..d_output_0   | 
------ -------------------------------------------------------- -------------------------------------------------------------- ------------------- ------------- -------------------------------- --- ------------------ ---------------------- ------------------------------------------------------------ 
17     _model_2_m_0_Add_output_0 (Eltwise, Add)                 [b:1,h:80,w:80,c:16]                                                                     102,400          _model_2_Split_output_0   |                                           Eltwise/add_[17]                                             
                                                                                                                                                                   _model_2_m_0_cv2_a..l_output_0   | 
------ -------------------------------------------------------- -------------------------------------------------------------- ------------------- ------------- -------------------------------- --- ------------------ ---------------------- ------------------------------------------------------------ 
18     _model_2_Concat_output_0 (Concat, Concat)                [b:1,h:80,w:80,c:48]                                                                                      _model_2_Split_output_0   |                                           Concat_[18]                                                  
                                                                                                                                                                          _model_2_Split_output_0   | 
                                                                                                                                                                        _model_2_m_0_Add_output_0   | 
------ -------------------------------------------------------- -------------------------------------------------------------- ------------------- ------------- -------------------------------- --- ------------------ ---------------------- ------------------------------------------------------------ 
19     _model_2_cv2_conv_..v_output_0 (Conv2D, Conv)            [b:1,h:80,w:80,c:64]                                           3,136/12,544           19,660,864         _model_2_Concat_output_0   |                                           Conv2D_[19]                                                  
------ -------------------------------------------------------- -------------------------------------------------------------- ------------------- ------------- -------------------------------- --- ------------------ ---------------------- ------------------------------------------------------------ 
20     _model_2_cv2_act_S..d_output_0 (Nonlinearity, Sigmoid)   [b:1,h:80,w:80,c:64]                                                                   4,096,000   _model_2_cv2_conv_..v_output_0   |                                           Nonlinearity_[20]                                            
------ -------------------------------------------------------- -------------------------------------------------------------- ------------------- ------------- -------------------------------- --- ------------------ ---------------------- ------------------------------------------------------------ 
21     _model_2_cv2_act_Mul_output_0 (Eltwise, Mul)             [b:1,h:80,w:80,c:64]                                                                     409,600   _model_2_cv2_conv_..v_output_0   |                                           Eltwise/mul_[21]                                             
                                                                                                                                                                   _model_2_cv2_act_S..d_output_0   | 
------ -------------------------------------------------------- -------------------------------------------------------------- ------------------- ------------- -------------------------------- --- ------------------ ---------------------- ------------------------------------------------------------ 
22     _model_3_conv_Conv_output_0 (Conv2D, Conv)               [b:1,h:40,w:40,c:64]                                           36,928/147,712         58,982,464    _model_2_cv2_act_Mul_output_0   |                                           Conv2D_[22]                                                  
------ -------------------------------------------------------- -------------------------------------------------------------- ------------------- ------------- -------------------------------- --- ------------------ ---------------------- ------------------------------------------------------------ 
23     _model_3_act_Sigmoid_output_0 (Nonlinearity, Sigmoid)    [b:1,h:40,w:40,c:64]                                                                   1,024,000      _model_3_conv_Conv_output_0   |                                           Nonlinearity_[23]                                            
------ -------------------------------------------------------- -------------------------------------------------------------- ------------------- ------------- -------------------------------- --- ------------------ ---------------------- ------------------------------------------------------------ 
24     _model_3_act_Mul_output_0 (Eltwise, Mul)                 [b:1,h:40,w:40,c:64]                                                                     102,400      _model_3_conv_Conv_output_0   |                                           Eltwise/mul_[24]                                             
                                                                                                                                                                    _model_3_act_Sigmoid_output_0   | 
------ -------------------------------------------------------- -------------------------------------------------------------- ------------------- ------------- -------------------------------- --- ------------------ ---------------------- ------------------------------------------------------------ 
25     _model_4_cv1_conv_..v_output_0 (Conv2D, Conv)            [b:1,h:40,w:40,c:64]                                           4,160/16,640            6,553,664        _model_3_act_Mul_output_0   |                                           Conv2D_[25]                                                  
------ -------------------------------------------------------- -------------------------------------------------------------- ------------------- ------------- -------------------------------- --- ------------------ ---------------------- ------------------------------------------------------------ 
26     _model_4_cv1_act_S..d_output_0 (Nonlinearity, Sigmoid)   [b:1,h:40,w:40,c:64]                                                                   1,024,000   _model_4_cv1_conv_..v_output_0   |                                           Nonlinearity_[26]                                            
------ -------------------------------------------------------- -------------------------------------------------------------- ------------------- ------------- -------------------------------- --- ------------------ ---------------------- ------------------------------------------------------------ 
27     _model_4_cv1_act_Mul_output_0 (Eltwise, Mul)             [b:1,h:40,w:40,c:64]                                                                     102,400   _model_4_cv1_conv_..v_output_0   |                                           Eltwise/mul_[27]                                             
                                                                                                                                                                   _model_4_cv1_act_S..d_output_0   | 
------ -------------------------------------------------------- -------------------------------------------------------------- ------------------- ------------- -------------------------------- --- ------------------ ---------------------- ------------------------------------------------------------ 
28     _model_4_Split_output_0 (Split, Split)                   [b:1,h:40,w:40,c:32][b:1,h:40,w:40,c:32]                       2/8                                  _model_4_cv1_act_Mul_output_0   | -4(-50.0%)                                Split_[28]                                                   
------ -------------------------------------------------------- -------------------------------------------------------------- ------------------- ------------- -------------------------------- --- ------------------ ---------------------- ------------------------------------------------------------ 
29     _model_4_m_0_cv1_c..v_output_0 (Conv2D, Conv)            [b:1,h:40,w:40,c:16]                                           4,624/18,496            7,372,816          _model_4_Split_output_0   |                                           Conv2D_[29]                                                  
------ -------------------------------------------------------- -------------------------------------------------------------- ------------------- ------------- -------------------------------- --- ------------------ ---------------------- ------------------------------------------------------------ 
30     _model_4_m_0_cv1_a..d_output_0 (Nonlinearity, Sigmoid)   [b:1,h:40,w:40,c:16]                                                                     256,000   _model_4_m_0_cv1_c..v_output_0   |                                           Nonlinearity_[30]                                            
------ -------------------------------------------------------- -------------------------------------------------------------- ------------------- ------------- -------------------------------- --- ------------------ ---------------------- ------------------------------------------------------------ 
31     _model_4_m_0_cv1_a..l_output_0 (Eltwise, Mul)            [b:1,h:40,w:40,c:16]                                                                      25,600   _model_4_m_0_cv1_c..v_output_0   |                                           Eltwise/mul_[31]                                             
                                                                                                                                                                   _model_4_m_0_cv1_a..d_output_0   | 
------ -------------------------------------------------------- -------------------------------------------------------------- ------------------- ------------- -------------------------------- --- ------------------ ---------------------- ------------------------------------------------------------ 
32     _model_4_m_0_cv2_c..v_output_0 (Conv2D, Conv)            [b:1,h:40,w:40,c:32]                                           4,640/18,560            7,372,832   _model_4_m_0_cv1_a..l_output_0   |                                           Conv2D_[32]                                                  
------ -------------------------------------------------------- -------------------------------------------------------------- ------------------- ------------- -------------------------------- --- ------------------ ---------------------- ------------------------------------------------------------ 
33     _model_4_m_0_cv2_a..d_output_0 (Nonlinearity, Sigmoid)   [b:1,h:40,w:40,c:32]                                                                     512,000   _model_4_m_0_cv2_c..v_output_0   |                                           Nonlinearity_[33]                                            
------ -------------------------------------------------------- -------------------------------------------------------------- ------------------- ------------- -------------------------------- --- ------------------ ---------------------- ------------------------------------------------------------ 
34     _model_4_m_0_cv2_a..l_output_0 (Eltwise, Mul)            [b:1,h:40,w:40,c:32]                                                                      51,200   _model_4_m_0_cv2_c..v_output_0   |                                           Eltwise/mul_[34]                                             
                                                                                                                                                                   _model_4_m_0_cv2_a..d_output_0   | 
------ -------------------------------------------------------- -------------------------------------------------------------- ------------------- ------------- -------------------------------- --- ------------------ ---------------------- ------------------------------------------------------------ 
35     _model_4_m_0_Add_output_0 (Eltwise, Add)                 [b:1,h:40,w:40,c:32]                                                                      51,200          _model_4_Split_output_0   |                                           Eltwise/add_[35]                                             
                                                                                                                                                                   _model_4_m_0_cv2_a..l_output_0   | 
------ -------------------------------------------------------- -------------------------------------------------------------- ------------------- ------------- -------------------------------- --- ------------------ ---------------------- ------------------------------------------------------------ 
36     _model_4_Concat_output_0 (Concat, Concat)                [b:1,h:40,w:40,c:96]                                                                                      _model_4_Split_output_0   |                                           Concat_[36]                                                  
                                                                                                                                                                          _model_4_Split_output_0   | 
                                                                                                                                                                        _model_4_m_0_Add_output_0   | 
------ -------------------------------------------------------- -------------------------------------------------------------- ------------------- ------------- -------------------------------- --- ------------------ ---------------------- ------------------------------------------------------------ 
37     _model_4_cv2_conv_..v_output_0 (Conv2D, Conv)            [b:1,h:40,w:40,c:128]                                          12,416/49,664          19,660,928         _model_4_Concat_output_0   |                                           Conv2D_[37]                                                  
------ -------------------------------------------------------- -------------------------------------------------------------- ------------------- ------------- -------------------------------- --- ------------------ ---------------------- ------------------------------------------------------------ 
38     _model_4_cv2_act_S..d_output_0 (Nonlinearity, Sigmoid)   [b:1,h:40,w:40,c:128]                                                                  2,048,000   _model_4_cv2_conv_..v_output_0   |                                           Nonlinearity_[38]                                            
------ -------------------------------------------------------- -------------------------------------------------------------- ------------------- ------------- -------------------------------- --- ------------------ ---------------------- ------------------------------------------------------------ 
39     _model_4_cv2_act_Mul_output_0 (Eltwise, Mul)             [b:1,h:40,w:40,c:128]                                                                    204,800   _model_4_cv2_conv_..v_output_0   |                                           Eltwise/mul_[39]                                             
                                                                                                                                                                   _model_4_cv2_act_S..d_output_0   | 
------ -------------------------------------------------------- -------------------------------------------------------------- ------------------- ------------- -------------------------------- --- ------------------ ---------------------- ------------------------------------------------------------ 
40     _model_5_conv_Conv_output_0 (Conv2D, Conv)               [b:1,h:20,w:20,c:128]                                          147,584/590,336        58,982,528    _model_4_cv2_act_Mul_output_0   |                                           Conv2D_[40]                                                  
------ -------------------------------------------------------- -------------------------------------------------------------- ------------------- ------------- -------------------------------- --- ------------------ ---------------------- ------------------------------------------------------------ 
41     _model_5_act_Sigmoid_output_0 (Nonlinearity, Sigmoid)    [b:1,h:20,w:20,c:128]                                                                    512,000      _model_5_conv_Conv_output_0   |                                           Nonlinearity_[41]                                            
------ -------------------------------------------------------- -------------------------------------------------------------- ------------------- ------------- -------------------------------- --- ------------------ ---------------------- ------------------------------------------------------------ 
42     _model_5_act_Mul_output_0 (Eltwise, Mul)                 [b:1,h:20,w:20,c:128]                                                                     51,200      _model_5_conv_Conv_output_0   |                                           Eltwise/mul_[42]                                             
                                                                                                                                                                    _model_5_act_Sigmoid_output_0   | 
------ -------------------------------------------------------- -------------------------------------------------------------- ------------------- ------------- -------------------------------- --- ------------------ ---------------------- ------------------------------------------------------------ 
43     _model_6_cv1_conv_..v_output_0 (Conv2D, Conv)            [b:1,h:20,w:20,c:128]                                          16,512/66,048           6,553,728        _model_5_act_Mul_output_0   |                                           Conv2D_[43]                                                  
------ -------------------------------------------------------- -------------------------------------------------------------- ------------------- ------------- -------------------------------- --- ------------------ ---------------------- ------------------------------------------------------------ 
44     _model_6_cv1_act_S..d_output_0 (Nonlinearity, Sigmoid)   [b:1,h:20,w:20,c:128]                                                                    512,000   _model_6_cv1_conv_..v_output_0   |                                           Nonlinearity_[44]                                            
------ -------------------------------------------------------- -------------------------------------------------------------- ------------------- ------------- -------------------------------- --- ------------------ ---------------------- ------------------------------------------------------------ 
45     _model_6_cv1_act_Mul_output_0 (Eltwise, Mul)             [b:1,h:20,w:20,c:128]                                                                     51,200   _model_6_cv1_conv_..v_output_0   |                                           Eltwise/mul_[45]                                             
                                                                                                                                                                   _model_6_cv1_act_S..d_output_0   | 
------ -------------------------------------------------------- -------------------------------------------------------------- ------------------- ------------- -------------------------------- --- ------------------ ---------------------- ------------------------------------------------------------ 
46     _model_6_Split_output_0 (Split, Split)                   [b:1,h:20,w:20,c:64][b:1,h:20,w:20,c:64]                       2/8                                  _model_6_cv1_act_Mul_output_0   | -4(-50.0%)                                Split_[46]                                                   
------ -------------------------------------------------------- -------------------------------------------------------------- ------------------- ------------- -------------------------------- --- ------------------ ---------------------- ------------------------------------------------------------ 
47     _model_6_m_0_cv1_c..v_output_0 (Conv2D, Conv)            [b:1,h:20,w:20,c:32]                                           2,080/8,320               819,232          _model_6_Split_output_0   |                                           Conv2D_[50]                                                  
------ -------------------------------------------------------- -------------------------------------------------------------- ------------------- ------------- -------------------------------- --- ------------------ ---------------------- ------------------------------------------------------------ 
48     _model_6_m_0_cv2_c..v_output_0 (Conv2D, Conv)            [b:1,h:20,w:20,c:32]                                           2,080/8,320               819,232          _model_6_Split_output_0   |                                           Conv2D_[47]                                                  
------ -------------------------------------------------------- -------------------------------------------------------------- ------------------- ------------- -------------------------------- --- ------------------ ---------------------- ------------------------------------------------------------ 
49     _model_6_m_0_cv1_a..d_output_0 (Nonlinearity, Sigmoid)   [b:1,h:20,w:20,c:32]                                                                     128,000   _model_6_m_0_cv1_c..v_output_0   |                                           Nonlinearity_[51]                                            
------ -------------------------------------------------------- -------------------------------------------------------------- ------------------- ------------- -------------------------------- --- ------------------ ---------------------- ------------------------------------------------------------ 
50     _model_6_m_0_cv2_a..d_output_0 (Nonlinearity, Sigmoid)   [b:1,h:20,w:20,c:32]                                                                     128,000   _model_6_m_0_cv2_c..v_output_0   |                                           Nonlinearity_[48]                                            
------ -------------------------------------------------------- -------------------------------------------------------------- ------------------- ------------- -------------------------------- --- ------------------ ---------------------- ------------------------------------------------------------ 
51     _model_6_m_0_cv1_a..l_output_0 (Eltwise, Mul)            [b:1,h:20,w:20,c:32]                                                                      12,800   _model_6_m_0_cv1_c..v_output_0   |                                           Eltwise/mul_[52]                                             
                                                                                                                                                                   _model_6_m_0_cv1_a..d_output_0   | 
------ -------------------------------------------------------- -------------------------------------------------------------- ------------------- ------------- -------------------------------- --- ------------------ ---------------------- ------------------------------------------------------------ 
52     _model_6_m_0_cv2_a..l_output_0 (Eltwise, Mul)            [b:1,h:20,w:20,c:32]                                                                      12,800   _model_6_m_0_cv2_c..v_output_0   |                                           Eltwise/mul_[49]                                             
                                                                                                                                                                   _model_6_m_0_cv2_a..d_output_0   | 
------ -------------------------------------------------------- -------------------------------------------------------------- ------------------- ------------- -------------------------------- --- ------------------ ---------------------- ------------------------------------------------------------ 
53     _model_6_m_0_m_m_0..v_output_0 (Conv2D, Conv)            [b:1,h:20,w:20,c:32]                                           9,248/36,992            3,686,432   _model_6_m_0_cv1_a..l_output_0   |                                           Conv2D_[53]                                                  
------ -------------------------------------------------------- -------------------------------------------------------------- ------------------- ------------- -------------------------------- --- ------------------ ---------------------- ------------------------------------------------------------ 
54     _model_6_m_0_m_m_0..d_output_0 (Nonlinearity, Sigmoid)   [b:1,h:20,w:20,c:32]                                                                     128,000   _model_6_m_0_m_m_0..v_output_0   |                                           Nonlinearity_[54]                                            
------ -------------------------------------------------------- -------------------------------------------------------------- ------------------- ------------- -------------------------------- --- ------------------ ---------------------- ------------------------------------------------------------ 
55     _model_6_m_0_m_m_0..l_output_0 (Eltwise, Mul)            [b:1,h:20,w:20,c:32]                                                                      12,800   _model_6_m_0_m_m_0..v_output_0   |                                           Eltwise/mul_[55]                                             
                                                                                                                                                                   _model_6_m_0_m_m_0..d_output_0   | 
------ -------------------------------------------------------- -------------------------------------------------------------- ------------------- ------------- -------------------------------- --- ------------------ ---------------------- ------------------------------------------------------------ 
56     _model_6_m_0_m_m_0..v_output_0 (Conv2D, Conv)            [b:1,h:20,w:20,c:32]                                           9,248/36,992            3,686,432   _model_6_m_0_m_m_0..l_output_0   |                                           Conv2D_[56]                                                  
------ -------------------------------------------------------- -------------------------------------------------------------- ------------------- ------------- -------------------------------- --- ------------------ ---------------------- ------------------------------------------------------------ 
57     _model_6_m_0_m_m_0..d_output_0 (Nonlinearity, Sigmoid)   [b:1,h:20,w:20,c:32]                                                                     128,000   _model_6_m_0_m_m_0..v_output_0   |                                           Nonlinearity_[57]                                            
------ -------------------------------------------------------- -------------------------------------------------------------- ------------------- ------------- -------------------------------- --- ------------------ ---------------------- ------------------------------------------------------------ 
58     _model_6_m_0_m_m_0..l_output_0 (Eltwise, Mul)            [b:1,h:20,w:20,c:32]                                                                      12,800   _model_6_m_0_m_m_0..v_output_0   |                                           Eltwise/mul_[58]                                             
                                                                                                                                                                   _model_6_m_0_m_m_0..d_output_0   | 
------ -------------------------------------------------------- -------------------------------------------------------------- ------------------- ------------- -------------------------------- --- ------------------ ---------------------- ------------------------------------------------------------ 
59     _model_6_m_0_m_m_0..d_output_0 (Eltwise, Add)            [b:1,h:20,w:20,c:32]                                                                      12,800   _model_6_m_0_cv1_a..l_output_0   |                                           Eltwise/add_[59]                                             
                                                                                                                                                                   _model_6_m_0_m_m_0..l_output_0   | 
------ -------------------------------------------------------- -------------------------------------------------------------- ------------------- ------------- -------------------------------- --- ------------------ ---------------------- ------------------------------------------------------------ 
60     _model_6_m_0_m_m_1..v_output_0 (Conv2D, Conv)            [b:1,h:20,w:20,c:32]                                           9,248/36,992            3,686,432   _model_6_m_0_m_m_0..d_output_0   |                                           Conv2D_[60]                                                  
------ -------------------------------------------------------- -------------------------------------------------------------- ------------------- ------------- -------------------------------- --- ------------------ ---------------------- ------------------------------------------------------------ 
61     _model_6_m_0_m_m_1..d_output_0 (Nonlinearity, Sigmoid)   [b:1,h:20,w:20,c:32]                                                                     128,000   _model_6_m_0_m_m_1..v_output_0   |                                           Nonlinearity_[61]                                            
------ -------------------------------------------------------- -------------------------------------------------------------- ------------------- ------------- -------------------------------- --- ------------------ ---------------------- ------------------------------------------------------------ 
62     _model_6_m_0_m_m_1..l_output_0 (Eltwise, Mul)            [b:1,h:20,w:20,c:32]                                                                      12,800   _model_6_m_0_m_m_1..v_output_0   |                                           Eltwise/mul_[62]                                             
                                                                                                                                                                   _model_6_m_0_m_m_1..d_output_0   | 
------ -------------------------------------------------------- -------------------------------------------------------------- ------------------- ------------- -------------------------------- --- ------------------ ---------------------- ------------------------------------------------------------ 
63     _model_6_m_0_m_m_1..v_output_0 (Conv2D, Conv)            [b:1,h:20,w:20,c:32]                                           9,248/36,992            3,686,432   _model_6_m_0_m_m_1..l_output_0   |                                           Conv2D_[63]                                                  
------ -------------------------------------------------------- -------------------------------------------------------------- ------------------- ------------- -------------------------------- --- ------------------ ---------------------- ------------------------------------------------------------ 
64     _model_6_m_0_m_m_1..d_output_0 (Nonlinearity, Sigmoid)   [b:1,h:20,w:20,c:32]                                                                     128,000   _model_6_m_0_m_m_1..v_output_0   |                                           Nonlinearity_[64]                                            
------ -------------------------------------------------------- -------------------------------------------------------------- ------------------- ------------- -------------------------------- --- ------------------ ---------------------- ------------------------------------------------------------ 
65     _model_6_m_0_m_m_1..l_output_0 (Eltwise, Mul)            [b:1,h:20,w:20,c:32]                                                                      12,800   _model_6_m_0_m_m_1..v_output_0   |                                           Eltwise/mul_[65]                                             
                                                                                                                                                                   _model_6_m_0_m_m_1..d_output_0   | 
------ -------------------------------------------------------- -------------------------------------------------------------- ------------------- ------------- -------------------------------- --- ------------------ ---------------------- ------------------------------------------------------------ 
66     _model_6_m_0_m_m_1..d_output_0 (Eltwise, Add)            [b:1,h:20,w:20,c:32]                                                                      12,800   _model_6_m_0_m_m_0..d_output_0   |                                           Eltwise/add_[66]                                             
                                                                                                                                                                   _model_6_m_0_m_m_1..l_output_0   | 
------ -------------------------------------------------------- -------------------------------------------------------------- ------------------- ------------- -------------------------------- --- ------------------ ---------------------- ------------------------------------------------------------ 
67     _model_6_m_0_Concat_output_0 (Concat, Concat)            [b:1,h:20,w:20,c:64]                                                                               _model_6_m_0_m_m_1..d_output_0   |                                           Concat_[67]                                                  
                                                                                                                                                                   _model_6_m_0_cv2_a..l_output_0   | 
------ -------------------------------------------------------- -------------------------------------------------------------- ------------------- ------------- -------------------------------- --- ------------------ ---------------------- ------------------------------------------------------------ 
68     _model_6_m_0_cv3_c..v_output_0 (Conv2D, Conv)            [b:1,h:20,w:20,c:64]                                           4,160/16,640            1,638,464     _model_6_m_0_Concat_output_0   |                                           Conv2D_[68]                                                  
------ -------------------------------------------------------- -------------------------------------------------------------- ------------------- ------------- -------------------------------- --- ------------------ ---------------------- ------------------------------------------------------------ 
69     _model_6_m_0_cv3_a..d_output_0 (Nonlinearity, Sigmoid)   [b:1,h:20,w:20,c:64]                                                                     256,000   _model_6_m_0_cv3_c..v_output_0   |                                           Nonlinearity_[69]                                            
------ -------------------------------------------------------- -------------------------------------------------------------- ------------------- ------------- -------------------------------- --- ------------------ ---------------------- ------------------------------------------------------------ 
70     _model_6_m_0_cv3_a..l_output_0 (Eltwise, Mul)            [b:1,h:20,w:20,c:64]                                                                      25,600   _model_6_m_0_cv3_c..v_output_0   |                                           Eltwise/mul_[70]                                             
                                                                                                                                                                   _model_6_m_0_cv3_a..d_output_0   | 
------ -------------------------------------------------------- -------------------------------------------------------------- ------------------- ------------- -------------------------------- --- ------------------ ---------------------- ------------------------------------------------------------ 
71     _model_6_Concat_output_0 (Concat, Concat)                [b:1,h:20,w:20,c:192]                                                                                     _model_6_Split_output_0   |                                           Concat_[71]                                                  
                                                                                                                                                                          _model_6_Split_output_0   | 
                                                                                                                                                                   _model_6_m_0_cv3_a..l_output_0   | 
------ -------------------------------------------------------- -------------------------------------------------------------- ------------------- ------------- -------------------------------- --- ------------------ ---------------------- ------------------------------------------------------------ 
72     _model_6_cv2_conv_..v_output_0 (Conv2D, Conv)            [b:1,h:20,w:20,c:128]                                          24,704/98,816           9,830,528         _model_6_Concat_output_0   |                                           Conv2D_[72]                                                  
------ -------------------------------------------------------- -------------------------------------------------------------- ------------------- ------------- -------------------------------- --- ------------------ ---------------------- ------------------------------------------------------------ 
73     _model_6_cv2_act_S..d_output_0 (Nonlinearity, Sigmoid)   [b:1,h:20,w:20,c:128]                                                                    512,000   _model_6_cv2_conv_..v_output_0   |                                           Nonlinearity_[73]                                            
------ -------------------------------------------------------- -------------------------------------------------------------- ------------------- ------------- -------------------------------- --- ------------------ ---------------------- ------------------------------------------------------------ 
74     _model_6_cv2_act_Mul_output_0 (Eltwise, Mul)             [b:1,h:20,w:20,c:128]                                                                     51,200   _model_6_cv2_conv_..v_output_0   |                                           Eltwise/mul_[74]                                             
                                                                                                                                                                   _model_6_cv2_act_S..d_output_0   | 
------ -------------------------------------------------------- -------------------------------------------------------------- ------------------- ------------- -------------------------------- --- ------------------ ---------------------- ------------------------------------------------------------ 
75     _model_7_conv_Conv_output_0 (Conv2D, Conv)               [b:1,h:10,w:10,c:256]                                          295,168/1,180,672      29,491,456    _model_6_cv2_act_Mul_output_0   |                                           Conv2D_[75]                                                  
------ -------------------------------------------------------- -------------------------------------------------------------- ------------------- ------------- -------------------------------- --- ------------------ ---------------------- ------------------------------------------------------------ 
76     _model_7_act_Sigmoid_output_0 (Nonlinearity, Sigmoid)    [b:1,h:10,w:10,c:256]                                                                    256,000      _model_7_conv_Conv_output_0   |                                           Nonlinearity_[76]                                            
------ -------------------------------------------------------- -------------------------------------------------------------- ------------------- ------------- -------------------------------- --- ------------------ ---------------------- ------------------------------------------------------------ 
77     _model_7_act_Mul_output_0 (Eltwise, Mul)                 [b:1,h:10,w:10,c:256]                                                                     25,600      _model_7_conv_Conv_output_0   |                                           Eltwise/mul_[77]                                             
                                                                                                                                                                    _model_7_act_Sigmoid_output_0   | 
------ -------------------------------------------------------- -------------------------------------------------------------- ------------------- ------------- -------------------------------- --- ------------------ ---------------------- ------------------------------------------------------------ 
78     _model_8_cv1_conv_..v_output_0 (Conv2D, Conv)            [b:1,h:10,w:10,c:256]                                          65,792/263,168          6,553,856        _model_7_act_Mul_output_0   |                                           Conv2D_[78]                                                  
------ -------------------------------------------------------- -------------------------------------------------------------- ------------------- ------------- -------------------------------- --- ------------------ ---------------------- ------------------------------------------------------------ 
79     _model_8_cv1_act_S..d_output_0 (Nonlinearity, Sigmoid)   [b:1,h:10,w:10,c:256]                                                                    256,000   _model_8_cv1_conv_..v_output_0   |                                           Nonlinearity_[79]                                            
------ -------------------------------------------------------- -------------------------------------------------------------- ------------------- ------------- -------------------------------- --- ------------------ ---------------------- ------------------------------------------------------------ 
80     _model_8_cv1_act_Mul_output_0 (Eltwise, Mul)             [b:1,h:10,w:10,c:256]                                                                     25,600   _model_8_cv1_conv_..v_output_0   |                                           Eltwise/mul_[80]                                             
                                                                                                                                                                   _model_8_cv1_act_S..d_output_0   | 
------ -------------------------------------------------------- -------------------------------------------------------------- ------------------- ------------- -------------------------------- --- ------------------ ---------------------- ------------------------------------------------------------ 
81     _model_8_Split_output_0 (Split, Split)                   [b:1,h:10,w:10,c:128][b:1,h:10,w:10,c:128]                     2/8                                  _model_8_cv1_act_Mul_output_0   | -4(-50.0%)                                Split_[81]                                                   
------ -------------------------------------------------------- -------------------------------------------------------------- ------------------- ------------- -------------------------------- --- ------------------ ---------------------- ------------------------------------------------------------ 
82     _model_8_m_0_cv1_c..v_output_0 (Conv2D, Conv)            [b:1,h:10,w:10,c:64]                                           8,256/33,024              819,264          _model_8_Split_output_0   |                                           Conv2D_[85]                                                  
------ -------------------------------------------------------- -------------------------------------------------------------- ------------------- ------------- -------------------------------- --- ------------------ ---------------------- ------------------------------------------------------------ 
83     _model_8_m_0_cv2_c..v_output_0 (Conv2D, Conv)            [b:1,h:10,w:10,c:64]                                           8,256/33,024              819,264          _model_8_Split_output_0   |                                           Conv2D_[82]                                                  
------ -------------------------------------------------------- -------------------------------------------------------------- ------------------- ------------- -------------------------------- --- ------------------ ---------------------- ------------------------------------------------------------ 
84     _model_8_m_0_cv1_a..d_output_0 (Nonlinearity, Sigmoid)   [b:1,h:10,w:10,c:64]                                                                      64,000   _model_8_m_0_cv1_c..v_output_0   |                                           Nonlinearity_[86]                                            
------ -------------------------------------------------------- -------------------------------------------------------------- ------------------- ------------- -------------------------------- --- ------------------ ---------------------- ------------------------------------------------------------ 
85     _model_8_m_0_cv2_a..d_output_0 (Nonlinearity, Sigmoid)   [b:1,h:10,w:10,c:64]                                                                      64,000   _model_8_m_0_cv2_c..v_output_0   |                                           Nonlinearity_[83]                                            
------ -------------------------------------------------------- -------------------------------------------------------------- ------------------- ------------- -------------------------------- --- ------------------ ---------------------- ------------------------------------------------------------ 
86     _model_8_m_0_cv1_a..l_output_0 (Eltwise, Mul)            [b:1,h:10,w:10,c:64]                                                                       6,400   _model_8_m_0_cv1_c..v_output_0   |                                           Eltwise/mul_[87]                                             
                                                                                                                                                                   _model_8_m_0_cv1_a..d_output_0   | 
------ -------------------------------------------------------- -------------------------------------------------------------- ------------------- ------------- -------------------------------- --- ------------------ ---------------------- ------------------------------------------------------------ 
87     _model_8_m_0_cv2_a..l_output_0 (Eltwise, Mul)            [b:1,h:10,w:10,c:64]                                                                       6,400   _model_8_m_0_cv2_c..v_output_0   |                                           Eltwise/mul_[84]                                             
                                                                                                                                                                   _model_8_m_0_cv2_a..d_output_0   | 
------ -------------------------------------------------------- -------------------------------------------------------------- ------------------- ------------- -------------------------------- --- ------------------ ---------------------- ------------------------------------------------------------ 
88     _model_8_m_0_m_m_0..v_output_0 (Conv2D, Conv)            [b:1,h:10,w:10,c:64]                                           36,928/147,712          3,686,464   _model_8_m_0_cv1_a..l_output_0   |                                           Conv2D_[88]                                                  
------ -------------------------------------------------------- -------------------------------------------------------------- ------------------- ------------- -------------------------------- --- ------------------ ---------------------- ------------------------------------------------------------ 
89     _model_8_m_0_m_m_0..d_output_0 (Nonlinearity, Sigmoid)   [b:1,h:10,w:10,c:64]                                                                      64,000   _model_8_m_0_m_m_0..v_output_0   |                                           Nonlinearity_[89]                                            
------ -------------------------------------------------------- -------------------------------------------------------------- ------------------- ------------- -------------------------------- --- ------------------ ---------------------- ------------------------------------------------------------ 
90     _model_8_m_0_m_m_0..l_output_0 (Eltwise, Mul)            [b:1,h:10,w:10,c:64]                                                                       6,400   _model_8_m_0_m_m_0..v_output_0   |                                           Eltwise/mul_[90]                                             
                                                                                                                                                                   _model_8_m_0_m_m_0..d_output_0   | 
------ -------------------------------------------------------- -------------------------------------------------------------- ------------------- ------------- -------------------------------- --- ------------------ ---------------------- ------------------------------------------------------------ 
91     _model_8_m_0_m_m_0..v_output_0 (Conv2D, Conv)            [b:1,h:10,w:10,c:64]                                           36,928/147,712          3,686,464   _model_8_m_0_m_m_0..l_output_0   |                                           Conv2D_[91]                                                  
------ -------------------------------------------------------- -------------------------------------------------------------- ------------------- ------------- -------------------------------- --- ------------------ ---------------------- ------------------------------------------------------------ 
92     _model_8_m_0_m_m_0..d_output_0 (Nonlinearity, Sigmoid)   [b:1,h:10,w:10,c:64]                                                                      64,000   _model_8_m_0_m_m_0..v_output_0   |                                           Nonlinearity_[92]                                            
------ -------------------------------------------------------- -------------------------------------------------------------- ------------------- ------------- -------------------------------- --- ------------------ ---------------------- ------------------------------------------------------------ 
93     _model_8_m_0_m_m_0..l_output_0 (Eltwise, Mul)            [b:1,h:10,w:10,c:64]                                                                       6,400   _model_8_m_0_m_m_0..v_output_0   |                                           Eltwise/mul_[93]                                             
                                                                                                                                                                   _model_8_m_0_m_m_0..d_output_0   | 
------ -------------------------------------------------------- -------------------------------------------------------------- ------------------- ------------- -------------------------------- --- ------------------ ---------------------- ------------------------------------------------------------ 
94     _model_8_m_0_m_m_0..d_output_0 (Eltwise, Add)            [b:1,h:10,w:10,c:64]                                                                       6,400   _model_8_m_0_cv1_a..l_output_0   |                                           Eltwise/add_[94]                                             
                                                                                                                                                                   _model_8_m_0_m_m_0..l_output_0   | 
------ -------------------------------------------------------- -------------------------------------------------------------- ------------------- ------------- -------------------------------- --- ------------------ ---------------------- ------------------------------------------------------------ 
95     _model_8_m_0_m_m_1..v_output_0 (Conv2D, Conv)            [b:1,h:10,w:10,c:64]                                           36,928/147,712          3,686,464   _model_8_m_0_m_m_0..d_output_0   |                                           Conv2D_[95]                                                  
------ -------------------------------------------------------- -------------------------------------------------------------- ------------------- ------------- -------------------------------- --- ------------------ ---------------------- ------------------------------------------------------------ 
96     _model_8_m_0_m_m_1..d_output_0 (Nonlinearity, Sigmoid)   [b:1,h:10,w:10,c:64]                                                                      64,000   _model_8_m_0_m_m_1..v_output_0   |                                           Nonlinearity_[96]                                            
------ -------------------------------------------------------- -------------------------------------------------------------- ------------------- ------------- -------------------------------- --- ------------------ ---------------------- ------------------------------------------------------------ 
97     _model_8_m_0_m_m_1..l_output_0 (Eltwise, Mul)            [b:1,h:10,w:10,c:64]                                                                       6,400   _model_8_m_0_m_m_1..v_output_0   |                                           Eltwise/mul_[97]                                             
                                                                                                                                                                   _model_8_m_0_m_m_1..d_output_0   | 
------ -------------------------------------------------------- -------------------------------------------------------------- ------------------- ------------- -------------------------------- --- ------------------ ---------------------- ------------------------------------------------------------ 
98     _model_8_m_0_m_m_1..v_output_0 (Conv2D, Conv)            [b:1,h:10,w:10,c:64]                                           36,928/147,712          3,686,464   _model_8_m_0_m_m_1..l_output_0   |                                           Conv2D_[98]                                                  
------ -------------------------------------------------------- -------------------------------------------------------------- ------------------- ------------- -------------------------------- --- ------------------ ---------------------- ------------------------------------------------------------ 
99     _model_8_m_0_m_m_1..d_output_0 (Nonlinearity, Sigmoid)   [b:1,h:10,w:10,c:64]                                                                      64,000   _model_8_m_0_m_m_1..v_output_0   |                                           Nonlinearity_[99]                                            
------ -------------------------------------------------------- -------------------------------------------------------------- ------------------- ------------- -------------------------------- --- ------------------ ---------------------- ------------------------------------------------------------ 
100    _model_8_m_0_m_m_1..l_output_0 (Eltwise, Mul)            [b:1,h:10,w:10,c:64]                                                                       6,400   _model_8_m_0_m_m_1..v_output_0   |                                           Eltwise/mul_[100]                                            
                                                                                                                                                                   _model_8_m_0_m_m_1..d_output_0   | 
------ -------------------------------------------------------- -------------------------------------------------------------- ------------------- ------------- -------------------------------- --- ------------------ ---------------------- ------------------------------------------------------------ 
101    _model_8_m_0_m_m_1..d_output_0 (Eltwise, Add)            [b:1,h:10,w:10,c:64]                                                                       6,400   _model_8_m_0_m_m_0..d_output_0   |                                           Eltwise/add_[101]                                            
                                                                                                                                                                   _model_8_m_0_m_m_1..l_output_0   | 
------ -------------------------------------------------------- -------------------------------------------------------------- ------------------- ------------- -------------------------------- --- ------------------ ---------------------- ------------------------------------------------------------ 
102    _model_8_m_0_Concat_output_0 (Concat, Concat)            [b:1,h:10,w:10,c:128]                                                                              _model_8_m_0_m_m_1..d_output_0   |                                           Concat_[102]                                                 
                                                                                                                                                                   _model_8_m_0_cv2_a..l_output_0   | 
------ -------------------------------------------------------- -------------------------------------------------------------- ------------------- ------------- -------------------------------- --- ------------------ ---------------------- ------------------------------------------------------------ 
103    _model_8_m_0_cv3_c..v_output_0 (Conv2D, Conv)            [b:1,h:10,w:10,c:128]                                          16,512/66,048           1,638,528     _model_8_m_0_Concat_output_0   |                                           Conv2D_[103]                                                 
------ -------------------------------------------------------- -------------------------------------------------------------- ------------------- ------------- -------------------------------- --- ------------------ ---------------------- ------------------------------------------------------------ 
104    _model_8_m_0_cv3_a..d_output_0 (Nonlinearity, Sigmoid)   [b:1,h:10,w:10,c:128]                                                                    128,000   _model_8_m_0_cv3_c..v_output_0   |                                           Nonlinearity_[104]                                           
------ -------------------------------------------------------- -------------------------------------------------------------- ------------------- ------------- -------------------------------- --- ------------------ ---------------------- ------------------------------------------------------------ 
105    _model_8_m_0_cv3_a..l_output_0 (Eltwise, Mul)            [b:1,h:10,w:10,c:128]                                                                     12,800   _model_8_m_0_cv3_c..v_output_0   |                                           Eltwise/mul_[105]                                            
                                                                                                                                                                   _model_8_m_0_cv3_a..d_output_0   | 
------ -------------------------------------------------------- -------------------------------------------------------------- ------------------- ------------- -------------------------------- --- ------------------ ---------------------- ------------------------------------------------------------ 
106    _model_8_Concat_output_0 (Concat, Concat)                [b:1,h:10,w:10,c:384]                                                                                     _model_8_Split_output_0   |                                           Concat_[106]                                                 
                                                                                                                                                                          _model_8_Split_output_0   | 
                                                                                                                                                                   _model_8_m_0_cv3_a..l_output_0   | 
------ -------------------------------------------------------- -------------------------------------------------------------- ------------------- ------------- -------------------------------- --- ------------------ ---------------------- ------------------------------------------------------------ 
107    _model_8_cv2_conv_..v_output_0 (Conv2D, Conv)            [b:1,h:10,w:10,c:256]                                          98,560/394,240          9,830,656         _model_8_Concat_output_0   |                                           Conv2D_[107]                                                 
------ -------------------------------------------------------- -------------------------------------------------------------- ------------------- ------------- -------------------------------- --- ------------------ ---------------------- ------------------------------------------------------------ 
108    _model_8_cv2_act_S..d_output_0 (Nonlinearity, Sigmoid)   [b:1,h:10,w:10,c:256]                                                                    256,000   _model_8_cv2_conv_..v_output_0   |                                           Nonlinearity_[108]                                           
------ -------------------------------------------------------- -------------------------------------------------------------- ------------------- ------------- -------------------------------- --- ------------------ ---------------------- ------------------------------------------------------------ 
109    _model_8_cv2_act_Mul_output_0 (Eltwise, Mul)             [b:1,h:10,w:10,c:256]                                                                     25,600   _model_8_cv2_conv_..v_output_0   |                                           Eltwise/mul_[109]                                            
                                                                                                                                                                   _model_8_cv2_act_S..d_output_0   | 
------ -------------------------------------------------------- -------------------------------------------------------------- ------------------- ------------- -------------------------------- --- ------------------ ---------------------- ------------------------------------------------------------ 
110    _model_9_cv1_conv_..v_output_0 (Conv2D, Conv)            [b:1,h:10,w:10,c:128]                                          32,896/131,584          3,276,928    _model_8_cv2_act_Mul_output_0   |                                           Conv2D_[110]                                                 
------ -------------------------------------------------------- -------------------------------------------------------------- ------------------- ------------- -------------------------------- --- ------------------ ---------------------- ------------------------------------------------------------ 
111    _model_9_m_MaxPool_output_0 (Pool, MaxPool)              [b:1,h:10,w:10,c:128]                                                                    320,000   _model_9_cv1_conv_..v_output_0   |                                           Pool_[111]                                                   
------ -------------------------------------------------------- -------------------------------------------------------------- ------------------- ------------- -------------------------------- --- ------------------ ---------------------- ------------------------------------------------------------ 
112    _model_9_m_1_MaxPool_output_0 (Pool, MaxPool)            [b:1,h:10,w:10,c:128]                                                                    320,000      _model_9_m_MaxPool_output_0   |                                           Pool_[112]                                                   
------ -------------------------------------------------------- -------------------------------------------------------------- ------------------- ------------- -------------------------------- --- ------------------ ---------------------- ------------------------------------------------------------ 
113    _model_9_m_2_MaxPool_output_0 (Pool, MaxPool)            [b:1,h:10,w:10,c:128]                                                                    320,000    _model_9_m_1_MaxPool_output_0   |                                           Pool_[113]                                                   
------ -------------------------------------------------------- -------------------------------------------------------------- ------------------- ------------- -------------------------------- --- ------------------ ---------------------- ------------------------------------------------------------ 
114    _model_9_Concat_output_0 (Concat, Concat)                [b:1,h:10,w:10,c:512]                                                                              _model_9_cv1_conv_..v_output_0   |                                           Concat_[114]                                                 
                                                                                                                                                                      _model_9_m_MaxPool_output_0   | 
                                                                                                                                                                    _model_9_m_1_MaxPool_output_0   | 
                                                                                                                                                                    _model_9_m_2_MaxPool_output_0   | 
------ -------------------------------------------------------- -------------------------------------------------------------- ------------------- ------------- -------------------------------- --- ------------------ ---------------------- ------------------------------------------------------------ 
115    _model_9_cv2_conv_..v_output_0 (Conv2D, Conv)            [b:1,h:10,w:10,c:256]                                          131,328/525,312        13,107,456         _model_9_Concat_output_0   |                                           Conv2D_[115]                                                 
------ -------------------------------------------------------- -------------------------------------------------------------- ------------------- ------------- -------------------------------- --- ------------------ ---------------------- ------------------------------------------------------------ 
116    _model_9_cv2_act_S..d_output_0 (Nonlinearity, Sigmoid)   [b:1,h:10,w:10,c:256]                                                                    256,000   _model_9_cv2_conv_..v_output_0   |                                           Nonlinearity_[116]                                           
------ -------------------------------------------------------- -------------------------------------------------------------- ------------------- ------------- -------------------------------- --- ------------------ ---------------------- ------------------------------------------------------------ 
117    _model_9_cv2_act_Mul_output_0 (Eltwise, Mul)             [b:1,h:10,w:10,c:256]                                                                     25,600   _model_9_cv2_conv_..v_output_0   |                                           Eltwise/mul_[117]                                            
                                                                                                                                                                   _model_9_cv2_act_S..d_output_0   | 
------ -------------------------------------------------------- -------------------------------------------------------------- ------------------- ------------- -------------------------------- --- ------------------ ---------------------- ------------------------------------------------------------ 
118    _model_10_cv1_conv..v_output_0 (Conv2D, Conv)            [b:1,h:10,w:10,c:256]                                          65,792/263,168          6,553,856    _model_9_cv2_act_Mul_output_0   |                                           Conv2D_[118]                                                 
------ -------------------------------------------------------- -------------------------------------------------------------- ------------------- ------------- -------------------------------- --- ------------------ ---------------------- ------------------------------------------------------------ 
119    _model_10_cv1_act_..d_output_0 (Nonlinearity, Sigmoid)   [b:1,h:10,w:10,c:256]                                                                    256,000   _model_10_cv1_conv..v_output_0   |                                           Nonlinearity_[119]                                           
------ -------------------------------------------------------- -------------------------------------------------------------- ------------------- ------------- -------------------------------- --- ------------------ ---------------------- ------------------------------------------------------------ 
120    _model_10_cv1_act_Mul_output_0 (Eltwise, Mul)            [b:1,h:10,w:10,c:256]                                                                     25,600   _model_10_cv1_conv..v_output_0   |                                           Eltwise/mul_[120]                                            
                                                                                                                                                                   _model_10_cv1_act_..d_output_0   | 
------ -------------------------------------------------------- -------------------------------------------------------------- ------------------- ------------- -------------------------------- --- ------------------ ---------------------- ------------------------------------------------------------ 
121    _model_10_Split_output_0 (Split, Split)                  [b:1,h:10,w:10,c:128][b:1,h:10,w:10,c:128]                     2/8                                 _model_10_cv1_act_Mul_output_0   | -4(-50.0%)                                Split_[121]                                                  
------ -------------------------------------------------------- -------------------------------------------------------------- ------------------- ------------- -------------------------------- --- ------------------ ---------------------- ------------------------------------------------------------ 
122    _model_10_m_m_0_at..v_output_0 (Conv2D, Conv)            [b:1,h:10,w:10,c:256]                                          33,024/132,096          3,277,056         _model_10_Split_output_0   |                                           Conv2D_[122]                                                 
------ -------------------------------------------------------- -------------------------------------------------------------- ------------------- ------------- -------------------------------- --- ------------------ ---------------------- ------------------------------------------------------------ 
123    _model_10_m_m_0_at..e_output_0 (Reshape, Reshape)        [b:1,h:128,w:100,c:2]                                                                              _model_10_m_m_0_at..v_output_0   |                    +25,600(+100.0%)       Transpose_/Transpose_[123, 124]                              
------ -------------------------------------------------------- -------------------------------------------------------------- ------------------- ------------- -------------------------------- --- ------------------ ---------------------- ------------------------------------------------------------ 
124    _model_10_m_m_0_at..t_output_0 (Split, Split)            [b:1,h:32,w:100,c:2][b:1,h:32,w:100,c:2][b:1,h:64,w:100,c:2]   3/12                                _model_10_m_m_0_at..e_output_0   |                                           Split_[125]                                                  
------ -------------------------------------------------------- -------------------------------------------------------------- ------------------- ------------- -------------------------------- --- ------------------ ---------------------- ------------------------------------------------------------ 
125    _model_10_m_m_0_at..e_output_0 (Transpose, Transpose)    [b:1,h:100,w:32,c:2]                                                                       3,200   _model_10_m_m_0_at..t_output_0   |                    -3,200(-100.0%)        
------ -------------------------------------------------------- -------------------------------------------------------------- ------------------- ------------- -------------------------------- --- ------------------ ---------------------- ------------------------------------------------------------ 
126    _model_10_m_m_0_at..2_output_0 (Reshape, Reshape)        [b:1,h:10,w:10,c:128]                                                                              _model_10_m_m_0_at..t_output_0   |                    +12,800(+100.0%)       Transpose_/Transpose_[136, 137]                              
------ -------------------------------------------------------- -------------------------------------------------------------- ------------------- ------------- -------------------------------- --- ------------------ ---------------------- ------------------------------------------------------------ 
127    _model_10_m_m_0_at..l_output_0 (Gemm, MatMul)            [b:1,h:100,w:100,c:2]                                                                128,020,000   _model_10_m_m_0_at..e_output_0   | +4(+100.0%)        +16,400(+0.0%)         Transpose_/Transpose_/Gemm_/Transpose_[126, 128, 129, 130]   
                                                                                                                                                                   _model_10_m_m_0_at..t_output_0   | 
------ -------------------------------------------------------- -------------------------------------------------------------- ------------------- ------------- -------------------------------- --- ------------------ ---------------------- ------------------------------------------------------------ 
128    _model_10_m_m_0_at..v_output_0 (Conv2D, Conv)            [b:1,h:10,w:10,c:128]                                          1,280/5,120               115,328   _model_10_m_m_0_at..2_output_0   |                                           Conv2D_[138]                                                 
------ -------------------------------------------------------- -------------------------------------------------------------- ------------------- ------------- -------------------------------- --- ------------------ ---------------------- ------------------------------------------------------------ 
129    _model_10_m_m_0_at..l_output_0 (Eltwise, Mul)            [b:1,h:100,w:100,c:2]                                                                     20,000   _model_10_m_m_0_at..l_output_0   |                    -20,000(-100.0%)       
                                                                                                                                                                   _model_10_m_m_0_at..1_output_0   | 
------ -------------------------------------------------------- -------------------------------------------------------------- ------------------- ------------- -------------------------------- --- ------------------ ---------------------- ------------------------------------------------------------ 
130    _model_10_m_m_0_at..x_output_0 (Nonlinearity, Softmax)   [b:1,h:100,w:100,c:2]                                                                    300,000   _model_10_m_m_0_at..l_output_0   |                                           Nonlinearity_[132]                                           
------ -------------------------------------------------------- -------------------------------------------------------------- ------------------- ------------- -------------------------------- --- ------------------ ---------------------- ------------------------------------------------------------ 
131    _model_10_m_m_0_at..1_output_0 (Transpose, Transpose)    [b:1,h:100,w:100,c:2]                                                                     10,000   _model_10_m_m_0_at..x_output_0   |                    -10,000(-100.0%)       
------ -------------------------------------------------------- -------------------------------------------------------------- ------------------- ------------- -------------------------------- --- ------------------ ---------------------- ------------------------------------------------------------ 
132    _model_10_m_m_0_at..1_output_0 (Gemm, MatMul)            [b:1,h:64,w:100,c:2]                                                                 163,852,800   _model_10_m_m_0_at..t_output_0   | +4(+100.0%)        +16,400(+0.0%)         Transpose_/Transpose_/Gemm_[127, 133, 134]                   
                                                                                                                                                                   _model_10_m_m_0_at..1_output_0   | 
------ -------------------------------------------------------- -------------------------------------------------------------- ------------------- ------------- -------------------------------- --- ------------------ ---------------------- ------------------------------------------------------------ 
133    _model_10_m_m_0_at..1_output_0 (Reshape, Reshape)        [b:1,h:10,w:10,c:128]                                                                              _model_10_m_m_0_at..1_output_0   |                    +6,400(+100.0%)        Transpose_[135]                                              
------ -------------------------------------------------------- -------------------------------------------------------------- ------------------- ------------- -------------------------------- --- ------------------ ---------------------- ------------------------------------------------------------ 
134    _model_10_m_m_0_at..d_output_0 (Eltwise, Add)            [b:1,h:10,w:10,c:128]                                                                     12,800   _model_10_m_m_0_at..1_output_0   |                                           Eltwise/add_[139]                                            
                                                                                                                                                                   _model_10_m_m_0_at..v_output_0   | 
------ -------------------------------------------------------- -------------------------------------------------------------- ------------------- ------------- -------------------------------- --- ------------------ ---------------------- ------------------------------------------------------------ 
135    _model_10_m_m_0_at..v_output_0 (Conv2D, Conv)            [b:1,h:10,w:10,c:128]                                          16,512/66,048           1,638,528   _model_10_m_m_0_at..d_output_0   |                                           Conv2D_[140]                                                 
------ -------------------------------------------------------- -------------------------------------------------------------- ------------------- ------------- -------------------------------- --- ------------------ ---------------------- ------------------------------------------------------------ 
136    _model_10_m_m_0_Add_output_0 (Eltwise, Add)              [b:1,h:10,w:10,c:128]                                                                     12,800         _model_10_Split_output_0   |                                           Eltwise/add_[141]                                            
                                                                                                                                                                   _model_10_m_m_0_at..v_output_0   | 
------ -------------------------------------------------------- -------------------------------------------------------------- ------------------- ------------- -------------------------------- --- ------------------ ---------------------- ------------------------------------------------------------ 
137    _model_10_m_m_0_ff..v_output_0 (Conv2D, Conv)            [b:1,h:10,w:10,c:256]                                          33,024/132,096          3,277,056     _model_10_m_m_0_Add_output_0   |                                           Conv2D_[142]                                                 
------ -------------------------------------------------------- -------------------------------------------------------------- ------------------- ------------- -------------------------------- --- ------------------ ---------------------- ------------------------------------------------------------ 
138    _model_10_m_m_0_ff..d_output_0 (Nonlinearity, Sigmoid)   [b:1,h:10,w:10,c:256]                                                                    256,000   _model_10_m_m_0_ff..v_output_0   |                                           Nonlinearity_[143]                                           
------ -------------------------------------------------------- -------------------------------------------------------------- ------------------- ------------- -------------------------------- --- ------------------ ---------------------- ------------------------------------------------------------ 
139    _model_10_m_m_0_ff..l_output_0 (Eltwise, Mul)            [b:1,h:10,w:10,c:256]                                                                     25,600   _model_10_m_m_0_ff..v_output_0   |                                           Eltwise/mul_[144]                                            
                                                                                                                                                                   _model_10_m_m_0_ff..d_output_0   | 
------ -------------------------------------------------------- -------------------------------------------------------------- ------------------- ------------- -------------------------------- --- ------------------ ---------------------- ------------------------------------------------------------ 
140    _model_10_m_m_0_ff..v_output_0 (Conv2D, Conv)            [b:1,h:10,w:10,c:128]                                          32,896/131,584          3,276,928   _model_10_m_m_0_ff..l_output_0   |                                           Conv2D_[145]                                                 
------ -------------------------------------------------------- -------------------------------------------------------------- ------------------- ------------- -------------------------------- --- ------------------ ---------------------- ------------------------------------------------------------ 
141    _model_10_m_m_0_Add_1_output_0 (Eltwise, Add)            [b:1,h:10,w:10,c:128]                                                                     12,800     _model_10_m_m_0_Add_output_0   |                                           Eltwise/add_[146]                                            
                                                                                                                                                                   _model_10_m_m_0_ff..v_output_0   | 
------ -------------------------------------------------------- -------------------------------------------------------------- ------------------- ------------- -------------------------------- --- ------------------ ---------------------- ------------------------------------------------------------ 
142    _model_10_Concat_output_0 (Concat, Concat)               [b:1,h:10,w:10,c:256]                                                                                    _model_10_Split_output_0   |                                           Concat_[147]                                                 
                                                                                                                                                                   _model_10_m_m_0_Add_1_output_0   | 
------ -------------------------------------------------------- -------------------------------------------------------------- ------------------- ------------- -------------------------------- --- ------------------ ---------------------- ------------------------------------------------------------ 
143    _model_10_cv2_conv..v_output_0 (Conv2D, Conv)            [b:1,h:10,w:10,c:256]                                          65,792/263,168          6,553,856        _model_10_Concat_output_0   |                                           Conv2D_[148]                                                 
------ -------------------------------------------------------- -------------------------------------------------------------- ------------------- ------------- -------------------------------- --- ------------------ ---------------------- ------------------------------------------------------------ 
144    _model_10_cv2_act_..d_output_0 (Nonlinearity, Sigmoid)   [b:1,h:10,w:10,c:256]                                                                    256,000   _model_10_cv2_conv..v_output_0   |                                           Nonlinearity_[149]                                           
------ -------------------------------------------------------- -------------------------------------------------------------- ------------------- ------------- -------------------------------- --- ------------------ ---------------------- ------------------------------------------------------------ 
145    _model_10_cv2_act_Mul_output_0 (Eltwise, Mul)            [b:1,h:10,w:10,c:256]                                                                     25,600   _model_10_cv2_conv..v_output_0   |                                           Eltwise/mul_[150]                                            
                                                                                                                                                                   _model_10_cv2_act_..d_output_0   | 
------ -------------------------------------------------------- -------------------------------------------------------------- ------------------- ------------- -------------------------------- --- ------------------ ---------------------- ------------------------------------------------------------ 
146    _model_11_Resize_output_0 (Resize, Resize)               [b:1,h:20,w:20,c:256]                                                                              _model_10_cv2_act_Mul_output_0   |                                           Resize_[151]                                                 
------ -------------------------------------------------------- -------------------------------------------------------------- ------------------- ------------- -------------------------------- --- ------------------ ---------------------- ------------------------------------------------------------ 
147    _model_12_Concat_output_0 (Concat, Concat)               [b:1,h:20,w:20,c:384]                                                                                   _model_11_Resize_output_0   |                                           Concat_[152]                                                 
                                                                                                                                                                    _model_6_cv2_act_Mul_output_0   | 
------ -------------------------------------------------------- -------------------------------------------------------------- ------------------- ------------- -------------------------------- --- ------------------ ---------------------- ------------------------------------------------------------ 
148    _model_13_cv1_conv..v_output_0 (Conv2D, Conv)            [b:1,h:20,w:20,c:128]                                          49,280/197,120         19,660,928        _model_12_Concat_output_0   |                                           Conv2D_[153]                                                 
------ -------------------------------------------------------- -------------------------------------------------------------- ------------------- ------------- -------------------------------- --- ------------------ ---------------------- ------------------------------------------------------------ 
149    _model_13_cv1_act_..d_output_0 (Nonlinearity, Sigmoid)   [b:1,h:20,w:20,c:128]                                                                    512,000   _model_13_cv1_conv..v_output_0   |                                           Nonlinearity_[154]                                           
------ -------------------------------------------------------- -------------------------------------------------------------- ------------------- ------------- -------------------------------- --- ------------------ ---------------------- ------------------------------------------------------------ 
150    _model_13_cv1_act_Mul_output_0 (Eltwise, Mul)            [b:1,h:20,w:20,c:128]                                                                     51,200   _model_13_cv1_conv..v_output_0   |                                           Eltwise/mul_[155]                                            
                                                                                                                                                                   _model_13_cv1_act_..d_output_0   | 
------ -------------------------------------------------------- -------------------------------------------------------------- ------------------- ------------- -------------------------------- --- ------------------ ---------------------- ------------------------------------------------------------ 
151    _model_13_Split_output_0 (Split, Split)                  [b:1,h:20,w:20,c:64][b:1,h:20,w:20,c:64]                       2/8                                 _model_13_cv1_act_Mul_output_0   | -4(-50.0%)                                Split_[156]                                                  
------ -------------------------------------------------------- -------------------------------------------------------------- ------------------- ------------- -------------------------------- --- ------------------ ---------------------- ------------------------------------------------------------ 
152    _model_13_m_0_cv1_..v_output_0 (Conv2D, Conv)            [b:1,h:20,w:20,c:32]                                           18,464/73,856           7,372,832         _model_13_Split_output_0   |                                           Conv2D_[157]                                                 
------ -------------------------------------------------------- -------------------------------------------------------------- ------------------- ------------- -------------------------------- --- ------------------ ---------------------- ------------------------------------------------------------ 
153    _model_13_m_0_cv1_..d_output_0 (Nonlinearity, Sigmoid)   [b:1,h:20,w:20,c:32]                                                                     128,000   _model_13_m_0_cv1_..v_output_0   |                                           Nonlinearity_[158]                                           
------ -------------------------------------------------------- -------------------------------------------------------------- ------------------- ------------- -------------------------------- --- ------------------ ---------------------- ------------------------------------------------------------ 
154    _model_13_m_0_cv1_..l_output_0 (Eltwise, Mul)            [b:1,h:20,w:20,c:32]                                                                      12,800   _model_13_m_0_cv1_..v_output_0   |                                           Eltwise/mul_[159]                                            
                                                                                                                                                                   _model_13_m_0_cv1_..d_output_0   | 
------ -------------------------------------------------------- -------------------------------------------------------------- ------------------- ------------- -------------------------------- --- ------------------ ---------------------- ------------------------------------------------------------ 
155    _model_13_m_0_cv2_..v_output_0 (Conv2D, Conv)            [b:1,h:20,w:20,c:64]                                           18,496/73,984           7,372,864   _model_13_m_0_cv1_..l_output_0   |                                           Conv2D_[160]                                                 
------ -------------------------------------------------------- -------------------------------------------------------------- ------------------- ------------- -------------------------------- --- ------------------ ---------------------- ------------------------------------------------------------ 
156    _model_13_m_0_cv2_..d_output_0 (Nonlinearity, Sigmoid)   [b:1,h:20,w:20,c:64]                                                                     256,000   _model_13_m_0_cv2_..v_output_0   |                                           Nonlinearity_[161]                                           
------ -------------------------------------------------------- -------------------------------------------------------------- ------------------- ------------- -------------------------------- --- ------------------ ---------------------- ------------------------------------------------------------ 
157    _model_13_m_0_cv2_..l_output_0 (Eltwise, Mul)            [b:1,h:20,w:20,c:64]                                                                      25,600   _model_13_m_0_cv2_..v_output_0   |                                           Eltwise/mul_[162]                                            
                                                                                                                                                                   _model_13_m_0_cv2_..d_output_0   | 
------ -------------------------------------------------------- -------------------------------------------------------------- ------------------- ------------- -------------------------------- --- ------------------ ---------------------- ------------------------------------------------------------ 
158    _model_13_m_0_Add_output_0 (Eltwise, Add)                [b:1,h:20,w:20,c:64]                                                                      25,600         _model_13_Split_output_0   |                                           Eltwise/add_[163]                                            
                                                                                                                                                                   _model_13_m_0_cv2_..l_output_0   | 
------ -------------------------------------------------------- -------------------------------------------------------------- ------------------- ------------- -------------------------------- --- ------------------ ---------------------- ------------------------------------------------------------ 
159    _model_13_Concat_output_0 (Concat, Concat)               [b:1,h:20,w:20,c:192]                                                                                    _model_13_Split_output_0   |                                           Concat_[164]                                                 
                                                                                                                                                                         _model_13_Split_output_0   | 
                                                                                                                                                                       _model_13_m_0_Add_output_0   | 
------ -------------------------------------------------------- -------------------------------------------------------------- ------------------- ------------- -------------------------------- --- ------------------ ---------------------- ------------------------------------------------------------ 
160    _model_13_cv2_conv..v_output_0 (Conv2D, Conv)            [b:1,h:20,w:20,c:128]                                          24,704/98,816           9,830,528        _model_13_Concat_output_0   |                                           Conv2D_[165]                                                 
------ -------------------------------------------------------- -------------------------------------------------------------- ------------------- ------------- -------------------------------- --- ------------------ ---------------------- ------------------------------------------------------------ 
161    _model_13_cv2_act_..d_output_0 (Nonlinearity, Sigmoid)   [b:1,h:20,w:20,c:128]                                                                    512,000   _model_13_cv2_conv..v_output_0   |                                           Nonlinearity_[166]                                           
------ -------------------------------------------------------- -------------------------------------------------------------- ------------------- ------------- -------------------------------- --- ------------------ ---------------------- ------------------------------------------------------------ 
162    _model_13_cv2_act_Mul_output_0 (Eltwise, Mul)            [b:1,h:20,w:20,c:128]                                                                     51,200   _model_13_cv2_conv..v_output_0   |                                           Eltwise/mul_[167]                                            
                                                                                                                                                                   _model_13_cv2_act_..d_output_0   | 
------ -------------------------------------------------------- -------------------------------------------------------------- ------------------- ------------- -------------------------------- --- ------------------ ---------------------- ------------------------------------------------------------ 
163    _model_14_Resize_output_0 (Resize, Resize)               [b:1,h:40,w:40,c:128]                                                                              _model_13_cv2_act_Mul_output_0   |                                           Resize_[168]                                                 
------ -------------------------------------------------------- -------------------------------------------------------------- ------------------- ------------- -------------------------------- --- ------------------ ---------------------- ------------------------------------------------------------ 
164    _model_15_Concat_output_0 (Concat, Concat)               [b:1,h:40,w:40,c:256]                                                                                   _model_14_Resize_output_0   |                                           Concat_[169]                                                 
                                                                                                                                                                    _model_4_cv2_act_Mul_output_0   | 
------ -------------------------------------------------------- -------------------------------------------------------------- ------------------- ------------- -------------------------------- --- ------------------ ---------------------- ------------------------------------------------------------ 
165    _model_16_cv1_conv..v_output_0 (Conv2D, Conv)            [b:1,h:40,w:40,c:64]                                           16,448/65,792          26,214,464        _model_15_Concat_output_0   |                                           Conv2D_[170]                                                 
------ -------------------------------------------------------- -------------------------------------------------------------- ------------------- ------------- -------------------------------- --- ------------------ ---------------------- ------------------------------------------------------------ 
166    _model_16_cv1_act_..d_output_0 (Nonlinearity, Sigmoid)   [b:1,h:40,w:40,c:64]                                                                   1,024,000   _model_16_cv1_conv..v_output_0   |                                           Nonlinearity_[171]                                           
------ -------------------------------------------------------- -------------------------------------------------------------- ------------------- ------------- -------------------------------- --- ------------------ ---------------------- ------------------------------------------------------------ 
167    _model_16_cv1_act_Mul_output_0 (Eltwise, Mul)            [b:1,h:40,w:40,c:64]                                                                     102,400   _model_16_cv1_conv..v_output_0   |                                           Eltwise/mul_[172]                                            
                                                                                                                                                                   _model_16_cv1_act_..d_output_0   | 
------ -------------------------------------------------------- -------------------------------------------------------------- ------------------- ------------- -------------------------------- --- ------------------ ---------------------- ------------------------------------------------------------ 
168    _model_16_Split_output_0 (Split, Split)                  [b:1,h:40,w:40,c:32][b:1,h:40,w:40,c:32]                       2/8                                 _model_16_cv1_act_Mul_output_0   | -4(-50.0%)                                Split_[173]                                                  
------ -------------------------------------------------------- -------------------------------------------------------------- ------------------- ------------- -------------------------------- --- ------------------ ---------------------- ------------------------------------------------------------ 
169    _model_16_m_0_cv1_..v_output_0 (Conv2D, Conv)            [b:1,h:40,w:40,c:16]                                           4,624/18,496            7,372,816         _model_16_Split_output_0   |                                           Conv2D_[174]                                                 
------ -------------------------------------------------------- -------------------------------------------------------------- ------------------- ------------- -------------------------------- --- ------------------ ---------------------- ------------------------------------------------------------ 
170    _model_16_m_0_cv1_..d_output_0 (Nonlinearity, Sigmoid)   [b:1,h:40,w:40,c:16]                                                                     256,000   _model_16_m_0_cv1_..v_output_0   |                                           Nonlinearity_[175]                                           
------ -------------------------------------------------------- -------------------------------------------------------------- ------------------- ------------- -------------------------------- --- ------------------ ---------------------- ------------------------------------------------------------ 
171    _model_16_m_0_cv1_..l_output_0 (Eltwise, Mul)            [b:1,h:40,w:40,c:16]                                                                      25,600   _model_16_m_0_cv1_..v_output_0   |                                           Eltwise/mul_[176]                                            
                                                                                                                                                                   _model_16_m_0_cv1_..d_output_0   | 
------ -------------------------------------------------------- -------------------------------------------------------------- ------------------- ------------- -------------------------------- --- ------------------ ---------------------- ------------------------------------------------------------ 
172    _model_16_m_0_cv2_..v_output_0 (Conv2D, Conv)            [b:1,h:40,w:40,c:32]                                           4,640/18,560            7,372,832   _model_16_m_0_cv1_..l_output_0   |                                           Conv2D_[177]                                                 
------ -------------------------------------------------------- -------------------------------------------------------------- ------------------- ------------- -------------------------------- --- ------------------ ---------------------- ------------------------------------------------------------ 
173    _model_16_m_0_cv2_..d_output_0 (Nonlinearity, Sigmoid)   [b:1,h:40,w:40,c:32]                                                                     512,000   _model_16_m_0_cv2_..v_output_0   |                                           Nonlinearity_[178]                                           
------ -------------------------------------------------------- -------------------------------------------------------------- ------------------- ------------- -------------------------------- --- ------------------ ---------------------- ------------------------------------------------------------ 
174    _model_16_m_0_cv2_..l_output_0 (Eltwise, Mul)            [b:1,h:40,w:40,c:32]                                                                      51,200   _model_16_m_0_cv2_..v_output_0   |                                           Eltwise/mul_[179]                                            
                                                                                                                                                                   _model_16_m_0_cv2_..d_output_0   | 
------ -------------------------------------------------------- -------------------------------------------------------------- ------------------- ------------- -------------------------------- --- ------------------ ---------------------- ------------------------------------------------------------ 
175    _model_16_m_0_Add_output_0 (Eltwise, Add)                [b:1,h:40,w:40,c:32]                                                                      51,200         _model_16_Split_output_0   |                                           Eltwise/add_[180]                                            
                                                                                                                                                                   _model_16_m_0_cv2_..l_output_0   | 
------ -------------------------------------------------------- -------------------------------------------------------------- ------------------- ------------- -------------------------------- --- ------------------ ---------------------- ------------------------------------------------------------ 
176    _model_16_Concat_output_0 (Concat, Concat)               [b:1,h:40,w:40,c:96]                                                                                     _model_16_Split_output_0   |                                           Concat_[181]                                                 
                                                                                                                                                                         _model_16_Split_output_0   | 
                                                                                                                                                                       _model_16_m_0_Add_output_0   | 
------ -------------------------------------------------------- -------------------------------------------------------------- ------------------- ------------- -------------------------------- --- ------------------ ---------------------- ------------------------------------------------------------ 
177    _model_16_cv2_conv..v_output_0 (Conv2D, Conv)            [b:1,h:40,w:40,c:64]                                           6,208/24,832            9,830,464        _model_16_Concat_output_0   |                                           Conv2D_[182]                                                 
------ -------------------------------------------------------- -------------------------------------------------------------- ------------------- ------------- -------------------------------- --- ------------------ ---------------------- ------------------------------------------------------------ 
178    _model_16_cv2_act_..d_output_0 (Nonlinearity, Sigmoid)   [b:1,h:40,w:40,c:64]                                                                   1,024,000   _model_16_cv2_conv..v_output_0   |                                           Nonlinearity_[183]                                           
------ -------------------------------------------------------- -------------------------------------------------------------- ------------------- ------------- -------------------------------- --- ------------------ ---------------------- ------------------------------------------------------------ 
179    _model_16_cv2_act_Mul_output_0 (Eltwise, Mul)            [b:1,h:40,w:40,c:64]                                                                     102,400   _model_16_cv2_conv..v_output_0   |                                           Eltwise/mul_[184]                                            
                                                                                                                                                                   _model_16_cv2_act_..d_output_0   | 
------ -------------------------------------------------------- -------------------------------------------------------------- ------------------- ------------- -------------------------------- --- ------------------ ---------------------- ------------------------------------------------------------ 
180    _model_17_conv_Conv_output_0 (Conv2D, Conv)              [b:1,h:20,w:20,c:64]                                           36,928/147,712         14,745,664   _model_16_cv2_act_Mul_output_0   |                                           Conv2D_[205]                                                 
------ -------------------------------------------------------- -------------------------------------------------------------- ------------------- ------------- -------------------------------- --- ------------------ ---------------------- ------------------------------------------------------------ 
181    _model_23_cv2_0_cv..v_output_0 (Conv2D, Conv)            [b:1,h:40,w:40,c:64]                                           36,928/147,712         58,982,464   _model_16_cv2_act_Mul_output_0   |                                           Conv2D_[198]                                                 
------ -------------------------------------------------------- -------------------------------------------------------------- ------------------- ------------- -------------------------------- --- ------------------ ---------------------- ------------------------------------------------------------ 
182    _model_23_cv3_0_cv..v_output_0 (Conv2D, Conv)            [b:1,h:40,w:40,c:64]                                           640/2,560                 921,664   _model_16_cv2_act_Mul_output_0   |                                           Conv2D_[185]                                                 
------ -------------------------------------------------------- -------------------------------------------------------------- ------------------- ------------- -------------------------------- --- ------------------ ---------------------- ------------------------------------------------------------ 
183    _model_17_act_Sigmoid_output_0 (Nonlinearity, Sigmoid)   [b:1,h:20,w:20,c:64]                                                                     256,000     _model_17_conv_Conv_output_0   |                                           Nonlinearity_[206]                                           
------ -------------------------------------------------------- -------------------------------------------------------------- ------------------- ------------- -------------------------------- --- ------------------ ---------------------- ------------------------------------------------------------ 
184    _model_23_cv2_0_cv..d_output_0 (Nonlinearity, Sigmoid)   [b:1,h:40,w:40,c:64]                                                                   1,024,000   _model_23_cv2_0_cv..v_output_0   |                                           Nonlinearity_[199]                                           
------ -------------------------------------------------------- -------------------------------------------------------------- ------------------- ------------- -------------------------------- --- ------------------ ---------------------- ------------------------------------------------------------ 
185    _model_23_cv3_0_cv..d_output_0 (Nonlinearity, Sigmoid)   [b:1,h:40,w:40,c:64]                                                                   1,024,000   _model_23_cv3_0_cv..v_output_0   |                                           Nonlinearity_[186]                                           
------ -------------------------------------------------------- -------------------------------------------------------------- ------------------- ------------- -------------------------------- --- ------------------ ---------------------- ------------------------------------------------------------ 
186    _model_17_act_Mul_output_0 (Eltwise, Mul)                [b:1,h:20,w:20,c:64]                                                                      25,600     _model_17_conv_Conv_output_0   |                                           Eltwise/mul_[207]                                            
                                                                                                                                                                   _model_17_act_Sigmoid_output_0   | 
------ -------------------------------------------------------- -------------------------------------------------------------- ------------------- ------------- -------------------------------- --- ------------------ ---------------------- ------------------------------------------------------------ 
187    _model_23_cv2_0_cv..l_output_0 (Eltwise, Mul)            [b:1,h:40,w:40,c:64]                                                                     102,400   _model_23_cv2_0_cv..v_output_0   |                                           Eltwise/mul_[200]                                            
                                                                                                                                                                   _model_23_cv2_0_cv..d_output_0   | 
------ -------------------------------------------------------- -------------------------------------------------------------- ------------------- ------------- -------------------------------- --- ------------------ ---------------------- ------------------------------------------------------------ 
188    _model_23_cv3_0_cv..l_output_0 (Eltwise, Mul)            [b:1,h:40,w:40,c:64]                                                                     102,400   _model_23_cv3_0_cv..v_output_0   |                                           Eltwise/mul_[187]                                            
                                                                                                                                                                   _model_23_cv3_0_cv..d_output_0   | 
------ -------------------------------------------------------- -------------------------------------------------------------- ------------------- ------------- -------------------------------- --- ------------------ ---------------------- ------------------------------------------------------------ 
189    _model_18_Concat_output_0 (Concat, Concat)               [b:1,h:20,w:20,c:192]                                                                                  _model_17_act_Mul_output_0   |                                           Concat_[208]                                                 
                                                                                                                                                                   _model_13_cv2_act_Mul_output_0   | 
------ -------------------------------------------------------- -------------------------------------------------------------- ------------------- ------------- -------------------------------- --- ------------------ ---------------------- ------------------------------------------------------------ 
190    _model_23_cv2_0_cv..v_output_0 (Conv2D, Conv)            [b:1,h:40,w:40,c:64]                                           36,928/147,712         58,982,464   _model_23_cv2_0_cv..l_output_0   |                                           Conv2D_[201]                                                 
------ -------------------------------------------------------- -------------------------------------------------------------- ------------------- ------------- -------------------------------- --- ------------------ ---------------------- ------------------------------------------------------------ 
191    _model_23_cv3_0_cv..v_output_0 (Conv2D, Conv)            [b:1,h:40,w:40,c:64]                                           4,160/16,640            6,553,664   _model_23_cv3_0_cv..l_output_0   |                                           Conv2D_[188]                                                 
------ -------------------------------------------------------- -------------------------------------------------------------- ------------------- ------------- -------------------------------- --- ------------------ ---------------------- ------------------------------------------------------------ 
192    _model_19_cv1_conv..v_output_0 (Conv2D, Conv)            [b:1,h:20,w:20,c:128]                                          24,704/98,816           9,830,528        _model_18_Concat_output_0   |                                           Conv2D_[209]                                                 
------ -------------------------------------------------------- -------------------------------------------------------------- ------------------- ------------- -------------------------------- --- ------------------ ---------------------- ------------------------------------------------------------ 
193    _model_23_cv2_0_cv..d_output_0 (Nonlinearity, Sigmoid)   [b:1,h:40,w:40,c:64]                                                                   1,024,000   _model_23_cv2_0_cv..v_output_0   |                                           Nonlinearity_[202]                                           
------ -------------------------------------------------------- -------------------------------------------------------------- ------------------- ------------- -------------------------------- --- ------------------ ---------------------- ------------------------------------------------------------ 
194    _model_23_cv3_0_cv..d_output_0 (Nonlinearity, Sigmoid)   [b:1,h:40,w:40,c:64]                                                                   1,024,000   _model_23_cv3_0_cv..v_output_0   |                                           Nonlinearity_[189]                                           
------ -------------------------------------------------------- -------------------------------------------------------------- ------------------- ------------- -------------------------------- --- ------------------ ---------------------- ------------------------------------------------------------ 
195    _model_19_cv1_act_..d_output_0 (Nonlinearity, Sigmoid)   [b:1,h:20,w:20,c:128]                                                                    512,000   _model_19_cv1_conv..v_output_0   |                                           Nonlinearity_[210]                                           
------ -------------------------------------------------------- -------------------------------------------------------------- ------------------- ------------- -------------------------------- --- ------------------ ---------------------- ------------------------------------------------------------ 
196    _model_23_cv2_0_cv..l_output_0 (Eltwise, Mul)            [b:1,h:40,w:40,c:64]                                                                     102,400   _model_23_cv2_0_cv..v_output_0   |                                           Eltwise/mul_[203]                                            
                                                                                                                                                                   _model_23_cv2_0_cv..d_output_0   | 
------ -------------------------------------------------------- -------------------------------------------------------------- ------------------- ------------- -------------------------------- --- ------------------ ---------------------- ------------------------------------------------------------ 
197    _model_23_cv3_0_cv..l_output_0 (Eltwise, Mul)            [b:1,h:40,w:40,c:64]                                                                     102,400   _model_23_cv3_0_cv..v_output_0   |                                           Eltwise/mul_[190]                                            
                                                                                                                                                                   _model_23_cv3_0_cv..d_output_0   | 
------ -------------------------------------------------------- -------------------------------------------------------------- ------------------- ------------- -------------------------------- --- ------------------ ---------------------- ------------------------------------------------------------ 
198    _model_19_cv1_act_Mul_output_0 (Eltwise, Mul)            [b:1,h:20,w:20,c:128]                                                                     51,200   _model_19_cv1_conv..v_output_0   |                                           Eltwise/mul_[211]                                            
                                                                                                                                                                   _model_19_cv1_act_..d_output_0   | 
------ -------------------------------------------------------- -------------------------------------------------------------- ------------------- ------------- -------------------------------- --- ------------------ ---------------------- ------------------------------------------------------------ 
199    _model_23_cv2_0_cv..v_output_0 (Conv2D, Conv)            [b:1,h:40,w:40,c:64]                                           4,160/16,640            6,553,664   _model_23_cv2_0_cv..l_output_0   |                                           Conv2D_[204]                                                 
------ -------------------------------------------------------- -------------------------------------------------------------- ------------------- ------------- -------------------------------- --- ------------------ ---------------------- ------------------------------------------------------------ 
200    _model_23_cv3_0_cv..v_output_0 (Conv2D, Conv)            [b:1,h:40,w:40,c:64]                                           640/2,560                 921,664   _model_23_cv3_0_cv..l_output_0   |                                           Conv2D_[191]                                                 
------ -------------------------------------------------------- -------------------------------------------------------------- ------------------- ------------- -------------------------------- --- ------------------ ---------------------- ------------------------------------------------------------ 
201    _model_19_Split_output_0 (Split, Split)                  [b:1,h:20,w:20,c:64][b:1,h:20,w:20,c:64]                       2/8                                 _model_19_cv1_act_Mul_output_0   | -4(-50.0%)                                Split_[212]                                                  
------ -------------------------------------------------------- -------------------------------------------------------------- ------------------- ------------- -------------------------------- --- ------------------ ---------------------- ------------------------------------------------------------ 
202    _model_23_Reshape_output_0 (Reshape, Reshape)            [b:1,h:1600,c:64]                                                                                  _model_23_cv2_0_cv..v_output_0   |                                           
------ -------------------------------------------------------- -------------------------------------------------------------- ------------------- ------------- -------------------------------- --- ------------------ ---------------------- ------------------------------------------------------------ 
203    _model_23_cv3_0_cv..d_output_0 (Nonlinearity, Sigmoid)   [b:1,h:40,w:40,c:64]                                                                   1,024,000   _model_23_cv3_0_cv..v_output_0   |                                           Nonlinearity_[192]                                           
------ -------------------------------------------------------- -------------------------------------------------------------- ------------------- ------------- -------------------------------- --- ------------------ ---------------------- ------------------------------------------------------------ 
204    _model_19_m_0_cv1_..v_output_0 (Conv2D, Conv)            [b:1,h:20,w:20,c:32]                                           18,464/73,856           7,372,832         _model_19_Split_output_0   |                                           Conv2D_[213]                                                 
------ -------------------------------------------------------- -------------------------------------------------------------- ------------------- ------------- -------------------------------- --- ------------------ ---------------------- ------------------------------------------------------------ 
205    _model_23_cv3_0_cv..l_output_0 (Eltwise, Mul)            [b:1,h:40,w:40,c:64]                                                                     102,400   _model_23_cv3_0_cv..v_output_0   |                                           Eltwise/mul_[193]                                            
                                                                                                                                                                   _model_23_cv3_0_cv..d_output_0   | 
------ -------------------------------------------------------- -------------------------------------------------------------- ------------------- ------------- -------------------------------- --- ------------------ ---------------------- ------------------------------------------------------------ 
206    _model_19_m_0_cv1_..d_output_0 (Nonlinearity, Sigmoid)   [b:1,h:20,w:20,c:32]                                                                     128,000   _model_19_m_0_cv1_..v_output_0   |                                           Nonlinearity_[214]                                           
------ -------------------------------------------------------- -------------------------------------------------------------- ------------------- ------------- -------------------------------- --- ------------------ ---------------------- ------------------------------------------------------------ 
207    _model_23_cv3_0_cv..v_output_0 (Conv2D, Conv)            [b:1,h:40,w:40,c:64]                                           4,160/16,640            6,553,664   _model_23_cv3_0_cv..l_output_0   |                                           Conv2D_[194]                                                 
------ -------------------------------------------------------- -------------------------------------------------------------- ------------------- ------------- -------------------------------- --- ------------------ ---------------------- ------------------------------------------------------------ 
208    _model_19_m_0_cv1_..l_output_0 (Eltwise, Mul)            [b:1,h:20,w:20,c:32]                                                                      12,800   _model_19_m_0_cv1_..v_output_0   |                                           Eltwise/mul_[215]                                            
                                                                                                                                                                   _model_19_m_0_cv1_..d_output_0   | 
------ -------------------------------------------------------- -------------------------------------------------------------- ------------------- ------------- -------------------------------- --- ------------------ ---------------------- ------------------------------------------------------------ 
209    _model_23_cv3_0_cv..d_output_0 (Nonlinearity, Sigmoid)   [b:1,h:40,w:40,c:64]                                                                   1,024,000   _model_23_cv3_0_cv..v_output_0   |                                           Nonlinearity_[195]                                           
------ -------------------------------------------------------- -------------------------------------------------------------- ------------------- ------------- -------------------------------- --- ------------------ ---------------------- ------------------------------------------------------------ 
…
223     220    _model_19_cv2_act_Mul_output_0 (Eltwise/mul)             51,200     op_f32_f32 
224     223    _model_23_cv3_1_cv..v_output_0 (Conv2D)                 460,928   smul_f32_f32 
225     226    _model_23_cv3_1_cv..d_output_0 (Nonlinearity)           512,000     op_f32_f32 
226     229    _model_23_cv3_1_cv..l_output_0 (Eltwise/mul)             51,200     op_f32_f32 
227     232    _model_23_cv3_1_cv..v_output_0 (Conv2D)               3,276,864   smul_f32_f32 
228     235    _model_23_cv3_1_cv..d_output_0 (Nonlinearity)           256,000     op_f32_f32 
229     238    _model_23_cv3_1_cv..l_output_0 (Eltwise/mul)             25,600     op_f32_f32 
230     241    _model_23_cv3_1_cv..v_output_0 (Conv2D)                 230,464   smul_f32_f32 
231     244    _model_23_cv3_1_cv..d_output_0 (Nonlinearity)           256,000     op_f32_f32 
232     247    _model_23_cv3_1_cv..l_output_0 (Eltwise/mul)             25,600     op_f32_f32 
233     250    _model_23_cv3_1_cv..v_output_0 (Conv2D)               1,638,464   smul_f32_f32 
234     253    _model_23_cv3_1_cv..d_output_0 (Nonlinearity)           256,000     op_f32_f32 
235     255    _model_23_cv3_1_cv..l_output_0 (Eltwise/mul)             25,600     op_f32_f32 
236     257    _model_23_cv3_1_cv..v_output_0 (Conv2D)                 716,828   smul_f32_f32 
237     222    _model_23_cv2_1_cv..v_output_0 (Conv2D)              29,491,264   smul_f32_f32 
238     225    _model_23_cv2_1_cv..d_output_0 (Nonlinearity)           256,000     op_f32_f32 
239     228    _model_23_cv2_1_cv..l_output_0 (Eltwise/mul)             25,600     op_f32_f32 
240     231    _model_23_cv2_1_cv..v_output_0 (Conv2D)              14,745,664   smul_f32_f32 
241     234    _model_23_cv2_1_cv..d_output_0 (Nonlinearity)           256,000     op_f32_f32 
242     237    _model_23_cv2_1_cv..l_output_0 (Eltwise/mul)             25,600     op_f32_f32 
243     240    _model_23_cv2_1_cv..v_output_0 (Conv2D)               1,638,464   smul_f32_f32 
244     221    _model_20_conv_Conv_output_0 (Conv2D)                14,745,728   smul_f32_f32 
245     224    _model_20_act_Sigmoid_output_0 (Nonlinearity)           128,000     op_f32_f32 
246     227    _model_20_act_Mul_output_0 (Eltwise/mul)                 12,800     op_f32_f32 
247     230    _model_21_Concat_output_0 (Concat)                            0   smul_f32_f32 
248     233    _model_22_cv1_conv..v_output_0 (Conv2D)               9,830,656   smul_f32_f32 
249     236    _model_22_cv1_act_..d_output_0 (Nonlinearity)           256,000     op_f32_f32 
250     239    _model_22_cv1_act_Mul_output_0 (Eltwise/mul)             25,600     op_f32_f32 
251     242    _model_22_Split_output_0 (Split)                              0   smul_f32_s32 
252     246    _model_22_m_0_cv2_..v_output_0 (Conv2D)                 819,264   smul_f32_f32 
253     249    _model_22_m_0_cv2_..d_output_0 (Nonlinearity)            64,000     op_f32_f32 
254     252    _model_22_m_0_cv2_..l_output_0 (Eltwise/mul)              6,400     op_f32_f32 
255     245    _model_22_m_0_cv1_..v_output_0 (Conv2D)                 819,264   smul_f32_f32 
256     248    _model_22_m_0_cv1_..d_output_0 (Nonlinearity)            64,000     op_f32_f32 
257     251    _model_22_m_0_cv1_..l_output_0 (Eltwise/mul)              6,400     op_f32_f32 
258     254    _model_22_m_0_m_m_..v_output_0 (Conv2D)               3,686,464   smul_f32_f32 
259     256    _model_22_m_0_m_m_..d_output_0 (Nonlinearity)            64,000     op_f32_f32 
260     258    _model_22_m_0_m_m_..l_output_0 (Eltwise/mul)              6,400     op_f32_f32 
261     260    _model_22_m_0_m_m_..v_output_0 (Conv2D)               3,686,464   smul_f32_f32 
262     261    _model_22_m_0_m_m_..d_output_0 (Nonlinearity)            64,000     op_f32_f32 
263     262    _model_22_m_0_m_m_..l_output_0 (Eltwise/mul)              6,400     op_f32_f32 
264     263    _model_22_m_0_m_m_..d_output_0 (Eltwise/add)              6,400     op_f32_f32 
265     264    _model_22_m_0_m_m_..v_output_0 (Conv2D)               3,686,464   smul_f32_f32 
266     265    _model_22_m_0_m_m_..d_output_0 (Nonlinearity)            64,000     op_f32_f32 
267     266    _model_22_m_0_m_m_..l_output_0 (Eltwise/mul)              6,400     op_f32_f32 
268     267    _model_22_m_0_m_m_..v_output_0 (Conv2D)               3,686,464   smul_f32_f32 
269     268    _model_22_m_0_m_m_..d_output_0 (Nonlinearity)            64,000     op_f32_f32 
270     269    _model_22_m_0_m_m_..l_output_0 (Eltwise/mul)              6,400     op_f32_f32 
271     270    _model_22_m_0_m_m_..d_output_0 (Eltwise/add)              6,400     op_f32_f32 
272     271    _model_22_m_0_Concat_output_0 (Concat)                        0   smul_f32_f32 
273     272    _model_22_m_0_cv3_..v_output_0 (Conv2D)               1,638,528   smul_f32_f32 
274     273    _model_22_m_0_cv3_..d_output_0 (Nonlinearity)           128,000     op_f32_f32 
275     274    _model_22_m_0_cv3_..l_output_0 (Eltwise/mul)             12,800     op_f32_f32 
276     275    _model_22_Concat_output_0 (Concat)                            0   smul_f32_f32 
277     276    _model_22_cv2_conv..v_output_0 (Conv2D)               9,830,656   smul_f32_f32 
278     277    _model_22_cv2_act_..d_output_0 (Nonlinearity)           256,000     op_f32_f32 
279     278    _model_22_cv2_act_Mul_output_0 (Eltwise/mul)             25,600     op_f32_f32 
280     280    _model_23_cv3_2_cv..v_output_0 (Conv2D)                 230,656   smul_f32_f32 
281     282    _model_23_cv3_2_cv..d_output_0 (Nonlinearity)           256,000     op_f32_f32 
282     284    _model_23_cv3_2_cv..l_output_0 (Eltwise/mul)             25,600     op_f32_f32 
283     286    _model_23_cv3_2_cv..v_output_0 (Conv2D)               1,638,464   smul_f32_f32 
284     288    _model_23_cv3_2_cv..d_output_0 (Nonlinearity)            64,000     op_f32_f32 
285     290    _model_23_cv3_2_cv..l_output_0 (Eltwise/mul)              6,400     op_f32_f32 
286     292    _model_23_cv3_2_cv..v_output_0 (Conv2D)                  57,664   smul_f32_f32 
287     294    _model_23_cv3_2_cv..d_output_0 (Nonlinearity)            64,000     op_f32_f32 
288     296    _model_23_cv3_2_cv..l_output_0 (Eltwise/mul)              6,400     op_f32_f32 
289     297    _model_23_cv3_2_cv..v_output_0 (Conv2D)                 409,664   smul_f32_f32 
290     299    _model_23_cv3_2_cv..d_output_0 (Nonlinearity)            64,000     op_f32_f32 
291     301    _model_23_cv3_2_cv..l_output_0 (Eltwise/mul)              6,400     op_f32_f32 
292     303    _model_23_cv3_2_cv..v_output_0 (Conv2D)                 179,228   smul_f32_f32 
293     307    _model_23_Concat_1_output_0 (Concat)                          0   smul_f32_f32 
294     310    _model_23_Sigmoid_output_0 (Nonlinearity)               588,000     op_f32_f32 
295     279    _model_23_cv2_2_cv..v_output_0 (Conv2D)              14,745,664   smul_f32_f32 
296     281    _model_23_cv2_2_cv..d_output_0 (Nonlinearity)            64,000     op_f32_f32 
297     283    _model_23_cv2_2_cv..l_output_0 (Eltwise/mul)              6,400     op_f32_f32 
298     285    _model_23_cv2_2_cv..v_output_0 (Conv2D)               3,686,464   smul_f32_f32 
299     287    _model_23_cv2_2_cv..d_output_0 (Nonlinearity)            64,000     op_f32_f32 
300     289    _model_23_cv2_2_cv..l_output_0 (Eltwise/mul)              6,400     op_f32_f32 
301     291    _model_23_cv2_2_cv..v_output_0 (Conv2D)                 409,664   smul_f32_f32 
302     295    _model_23_Concat_output_0 (Concat)                            0   smul_f32_f32 
303     298    _model_23_dfl_Resh.._to_chlast (Transpose)               67,200   smul_f32_f32 
304     300    _model_23_dfl_Tran..e_output_0 (Transpose)               67,200   smul_f32_f32 
305     302    _model_23_dfl_Softmax_output_0 (Nonlinearity)         2,016,000     op_f32_f32 
306     304    _model_23_dfl_conv..v_output_0 (Conv2D)                 134,401   smul_f32_f32 
307     306    _model_23_dfl_Resh.._to_chlast (Transpose)                4,200   smul_f32_f32 
308     306    _model_23_dfl_Resh..to_chfirst (Transpose)                4,200   smul_f32_f32 
309     309    _model_23_Slice_1_output_0 (Slice)                            0   smul_f32_f32 
310     308    _model_23_Slice_output_0 (Slice)                              0   smul_f32_f32 
311     312    _model_23_Add_1_output_0 (Eltwise/add)                    4,200     op_f32_f32 
312     311    _model_23_Sub_output_0 (Eltwise/sub)                      4,200     op_f32_f32 
313     314    _model_23_Sub_1_output_0 (Eltwise/sub)                    4,200     op_f32_f32 
314     313    _model_23_Add_2_output_0 (Eltwise/add)                    4,200     op_f32_f32 
315     315    _model_23_Div_1_output_0 (Eltwise/div)                   21,000     op_f32_f32 
316     316    _model_23_Concat_2_output_0 (Concat)                          0   smul_f32_f32 
317     317    _model_23_Mul_2_output_0 (Eltwise/mul)                    8,400     op_f32_f32 
318     318    output0 (Concat)                                              0   smul_f32_f32 
319     1      output0_Transpose_0 (Transpose)                          33,600   smul_f32_f32 
------- ------ ----------------------------------------------- --------------- -------------- 
total                                                            1,132,046,565 

Number of operation types
---------------- --------------- ----------- 
operation type                 #           % 
---------------- --------------- ----------- 
smul_f32_f32       1,085,736,365       95.9% 
op_f32_f32            46,310,200        4.1% 
smul_f32_s32                   0        0.0% 

Complexity report (model)
------ ------------------------------------------ ------------------------- ------------------------- ---------------------- 
m_id   name                                       c_macc                    c_rom                     c_id                   
------ ------------------------------------------ ------------------------- ------------------------- ---------------------- 
129    _model_10_m_m_0_attn_Constant_1_output_0   |                  0.0%   |                  0.0%   [131]                  
311    _model_23_Constant_12_output_0             |                  0.0%   |                  0.2%   [312]                  
1      _model_23_Constant_13_output_0             ||                 1.0%   |                  0.0%   [1, 319]               
2      _model_23_Constant_15_output_0             |                  0.4%   |                  0.0%   [0, 2]                 
3      _model_0_act_Mul_output_0                  |                  0.0%   |                  0.0%   [3]                    
4      _model_1_conv_Conv_output_0                |||                2.6%   |                  0.2%   [4]                    
5      _model_1_act_Sigmoid_output_0              |                  0.2%   |                  0.0%   [5]                    
6      _model_1_act_Mul_output_0                  |                  0.0%   |                  0.0%   [6]                    
7      _model_2_cv1_conv_Conv_output_0            |                  0.6%   |                  0.0%   [7]                    
8      _model_2_cv1_act_Sigmoid_output_0          |                  0.2%   |                  0.0%   [8]                    
9      _model_2_cv1_act_Mul_output_0              |                  0.0%   |                  0.0%   [9]                    
10     _model_2_Split_output_0                    |                  0.0%   |                  0.0%   [10]                   
11     _model_2_m_0_cv1_conv_Conv_output_0        |                  0.7%   |                  0.0%   [11]                   
12     _model_2_m_0_cv1_act_Sigmoid_output_0      |                  0.0%   |                  0.0%   [12]                   
13     _model_2_m_0_cv1_act_Mul_output_0          |                  0.0%   |                  0.0%   [13]                   
14     _model_2_m_0_cv2_conv_Conv_output_0        |                  0.7%   |                  0.0%   [14]                   
15     _model_2_m_0_cv2_act_Sigmoid_output_0      |                  0.1%   |                  0.0%   [15]                   
16     _model_2_m_0_cv2_act_Mul_output_0          |                  0.0%   |                  0.0%   [16]                   
17     _model_2_m_0_Add_output_0                  |                  0.0%   |                  0.0%   [17]                   
18     _model_2_Concat_output_0                   |                  0.0%   |                  0.0%   [18]                   
19     _model_2_cv2_conv_Conv_output_0            ||                 1.7%   |                  0.1%   [19]                   
20     _model_2_cv2_act_Sigmoid_output_0          |                  0.4%   |                  0.0%   [20]                   
21     _model_2_cv2_act_Mul_output_0              |                  0.0%   |                  0.0%   [21]                   
22     _model_3_conv_Conv_output_0                ||||||             5.2%   ||                 1.4%   [22]                   
23     _model_3_act_Sigmoid_output_0              |                  0.1%   |                  0.0%   [23]                   
24     _model_3_act_Mul_output_0                  |                  0.0%   |                  0.0%   [24]                   
25     _model_4_cv1_conv_Conv_output_0            |                  0.6%   |                  0.2%   [25]                   
26     _model_4_cv1_act_Sigmoid_output_0          |                  0.1%   |                  0.0%   [26]                   
27     _model_4_cv1_act_Mul_output_0              |                  0.0%   |                  0.0%   [27]                   
28     _model_4_Split_output_0                    |                  0.0%   |                  0.0%   [28]                   
29     _model_4_m_0_cv1_conv_Conv_output_0        |                  0.7%   |                  0.2%   [29]                   
30     _model_4_m_0_cv1_act_Sigmoid_output_0      |                  0.0%   |                  0.0%   [30]                   
31     _model_4_m_0_cv1_act_Mul_output_0          |                  0.0%   |                  0.0%   [31]                   
32     _model_4_m_0_cv2_conv_Conv_output_0        |                  0.7%   |                  0.2%   [32]                   
33     _model_4_m_0_cv2_act_Sigmoid_output_0      |                  0.0%   |                  0.0%   [33]                   
34     _model_4_m_0_cv2_act_Mul_output_0          |                  0.0%   |                  0.0%   [34]                   
35     _model_4_m_0_Add_output_0                  |                  0.0%   |                  0.0%   [35]                   
36     _model_4_Concat_output_0                   |                  0.0%   |                  0.0%   [36]                   
37     _model_4_cv2_conv_Conv_output_0            ||                 1.7%   |                  0.5%   [37]                   
38     _model_4_cv2_act_Sigmoid_output_0          |                  0.2%   |                  0.0%   [38]                   
39     _model_4_cv2_act_Mul_output_0              |                  0.0%   |                  0.0%   [39]                   
40     _model_5_conv_Conv_output_0                ||||||             5.2%   ||||||||           5.7%   [40]                   
41     _model_5_act_Sigmoid_output_0              |                  0.0%   |                  0.0%   [41]                   
42     _model_5_act_Mul_output_0                  |                  0.0%   |                  0.0%   [42]                   
43     _model_6_cv1_conv_Conv_output_0            |                  0.6%   |                  0.6%   [43]                   
44     _model_6_cv1_act_Sigmoid_output_0          |                  0.0%   |                  0.0%   [44]                   
45     _model_6_cv1_act_Mul_output_0              |                  0.0%   |                  0.0%   [45]                   
46     _model_6_Split_output_0                    |                  0.0%   |                  0.0%   [46]                   
47     _model_6_m_0_cv1_conv_Conv_output_0        |                  0.1%   |                  0.1%   [50]                   
48     _model_6_m_0_cv2_conv_Conv_output_0        |                  0.1%   |                  0.1%   [47]                   
49     _model_6_m_0_cv1_act_Sigmoid_output_0      |                  0.0%   |                  0.0%   [51]                   
50     _model_6_m_0_cv2_act_Sigmoid_output_0      |                  0.0%   |                  0.0%   [48]                   
51     _model_6_m_0_cv1_act_Mul_output_0          |                  0.0%   |                  0.0%   [52]                   
52     _model_6_m_0_cv2_act_Mul_output_0          |                  0.0%   |                  0.0%   [49]                   
53     _model_6_m_0_m_m_0_cv1_conv_..v_output_0   |                  0.3%   |                  0.4%   [53]                   
54     _model_6_m_0_m_m_0_cv1_act_S..d_output_0   |                  0.0%   |                  0.0%   [54]                   
55     _model_6_m_0_m_m_0_cv1_act_Mul_output_0    |                  0.0%   |                  0.0%   [55]                   
56     _model_6_m_0_m_m_0_cv2_conv_..v_output_0   |                  0.3%   |                  0.4%   [56]                   
57     _model_6_m_0_m_m_0_cv2_act_S..d_output_0   |                  0.0%   |                  0.0%   [57]                   
58     _model_6_m_0_m_m_0_cv2_act_Mul_output_0    |                  0.0%   |                  0.0%   [58]                   
59     _model_6_m_0_m_m_0_Add_output_0            |                  0.0%   |                  0.0%   [59]                   
60     _model_6_m_0_m_m_1_cv1_conv_..v_output_0   |                  0.3%   |                  0.4%   [60]                   
61     _model_6_m_0_m_m_1_cv1_act_S..d_output_0   |                  0.0%   |                  0.0%   [61]                   
62     _model_6_m_0_m_m_1_cv1_act_Mul_output_0    |                  0.0%   |                  0.0%   [62]                   
63     _model_6_m_0_m_m_1_cv2_conv_..v_output_0   |                  0.3%   |                  0.4%   [63]                   
64     _model_6_m_0_m_m_1_cv2_act_S..d_output_0   |                  0.0%   |                  0.0%   [64]                   
65     _model_6_m_0_m_m_1_cv2_act_Mul_output_0    |                  0.0%   |                  0.0%   [65]                   
66     _model_6_m_0_m_m_1_Add_output_0            |                  0.0%   |                  0.0%   [66]                   
67     _model_6_m_0_Concat_output_0               |                  0.0%   |                  0.0%   [67]                   
68     _model_6_m_0_cv3_conv_Conv_output_0        |                  0.1%   |                  0.2%   [68]                   
69     _model_6_m_0_cv3_act_Sigmoid_output_0      |                  0.0%   |                  0.0%   [69]                   
70     _model_6_m_0_cv3_act_Mul_output_0          |                  0.0%   |                  0.0%   [70]                   
71     _model_6_Concat_output_0                   |                  0.0%   |                  0.0%   [71]                   
72     _model_6_cv2_conv_Conv_output_0            |                  0.9%   ||                 1.0%   [72]                   
73     _model_6_cv2_act_Sigmoid_output_0          |                  0.0%   |                  0.0%   [73]                   
74     _model_6_cv2_act_Mul_output_0              |                  0.0%   |                  0.0%   [74]                   
75     _model_7_conv_Conv_output_0                |||                2.6%   ||||||||||||||||  11.4%   [75]                   
76     _model_7_act_Sigmoid_output_0              |                  0.0%   |                  0.0%   [76]                   
77     _model_7_act_Mul_output_0                  |                  0.0%   |                  0.0%   [77]                   
78     _model_8_cv1_conv_Conv_output_0            |                  0.6%   ||||               2.5%   [78]                   
79     _model_8_cv1_act_Sigmoid_output_0          |                  0.0%   |                  0.0%   [79]                   
80     _model_8_cv1_act_Mul_output_0              |                  0.0%   |                  0.0%   [80]                   
81     _model_8_Split_output_0                    |                  0.0%   |                  0.0%   [81]                   
82     _model_8_m_0_cv1_conv_Conv_output_0        |                  0.1%   |                  0.3%   [85]                   
83     _model_8_m_0_cv2_conv_Conv_output_0        |                  0.1%   |                  0.3%   [82]                   
84     _model_8_m_0_cv1_act_Sigmoid_output_0      |                  0.0%   |                  0.0%   [86]                   
85     _model_8_m_0_cv2_act_Sigmoid_output_0      |                  0.0%   |                  0.0%   [83]                   
86     _model_8_m_0_cv1_act_Mul_output_0          |                  0.0%   |                  0.0%   [87]                   
87     _model_8_m_0_cv2_act_Mul_output_0          |                  0.0%   |                  0.0%   [84]                   
88     _model_8_m_0_m_m_0_cv1_conv_..v_output_0   |                  0.3%   ||                 1.4%   [88]                   
89     _model_8_m_0_m_m_0_cv1_act_S..d_output_0   |                  0.0%   |                  0.0%   [89]                   
90     _model_8_m_0_m_m_0_cv1_act_Mul_output_0    |                  0.0%   |                  0.0%   [90]                   
91     _model_8_m_0_m_m_0_cv2_conv_..v_output_0   |                  0.3%   ||                 1.4%   [91]                   
92     _model_8_m_0_m_m_0_cv2_act_S..d_output_0   |                  0.0%   |                  0.0%   [92]                   
93     _model_8_m_0_m_m_0_cv2_act_Mul_output_0    |                  0.0%   |                  0.0%   [93]                   
94     _model_8_m_0_m_m_0_Add_output_0            |                  0.0%   |                  0.0%   [94]                   
95     _model_8_m_0_m_m_1_cv1_conv_..v_output_0   |                  0.3%   ||                 1.4%   [95]                   
96     _model_8_m_0_m_m_1_cv1_act_S..d_output_0   |                  0.0%   |                  0.0%   [96]                   
97     _model_8_m_0_m_m_1_cv1_act_Mul_output_0    |                  0.0%   |                  0.0%   [97]                   
98     _model_8_m_0_m_m_1_cv2_conv_..v_output_0   |                  0.3%   ||                 1.4%   [98]                   
99     _model_8_m_0_m_m_1_cv2_act_S..d_output_0   |                  0.0%   |                  0.0%   [99]                   
100    _model_8_m_0_m_m_1_cv2_act_Mul_output_0    |                  0.0%   |                  0.0%   [100]                  
101    _model_8_m_0_m_m_1_Add_output_0            |                  0.0%   |                  0.0%   [101]                  
102    _model_8_m_0_Concat_output_0               |                  0.0%   |                  0.0%   [102]                  
103    _model_8_m_0_cv3_conv_Conv_output_0        |                  0.1%   |                  0.6%   [103]                  
104    _model_8_m_0_cv3_act_Sigmoid_output_0      |                  0.0%   |                  0.0%   [104]                  
105    _model_8_m_0_cv3_act_Mul_output_0          |                  0.0%   |                  0.0%   [105]                  
106    _model_8_Concat_output_0                   |                  0.0%   |                  0.0%   [106]                  
107    _model_8_cv2_conv_Conv_output_0            |                  0.9%   ||||||             3.8%   [107]                  
108    _model_8_cv2_act_Sigmoid_output_0          |                  0.0%   |                  0.0%   [108]                  
109    _model_8_cv2_act_Mul_output_0              |                  0.0%   |                  0.0%   [109]                  
110    _model_9_cv1_conv_Conv_output_0            |                  0.3%   ||                 1.3%   [110]                  
111    _model_9_m_MaxPool_output_0                |                  0.0%   |                  0.0%   [111]                  
112    _model_9_m_1_MaxPool_output_0              |                  0.0%   |                  0.0%   [112]                  
113    _model_9_m_2_MaxPool_output_0              |                  0.0%   |                  0.0%   [113]                  
114    _model_9_Concat_output_0                   |                  0.0%   |                  0.0%   [114]                  
115    _model_9_cv2_conv_Conv_output_0            ||                 1.2%   |||||||            5.1%   [115]                  
116    _model_9_cv2_act_Sigmoid_output_0          |                  0.0%   |                  0.0%   [116]                  
117    _model_9_cv2_act_Mul_output_0              |                  0.0%   |                  0.0%   [117]                  
118    _model_10_cv1_conv_Conv_output_0           |                  0.6%   ||||               2.5%   [118]                  
119    _model_10_cv1_act_Sigmoid_output_0         |                  0.0%   |                  0.0%   [119]                  
120    _model_10_cv1_act_Mul_output_0             |                  0.0%   |                  0.0%   [120]                  
121    _model_10_Split_output_0                   |                  0.0%   |                  0.0%   [121]                  
122    _model_10_m_m_0_attn_qkv_con..v_output_0   |                  0.3%   ||                 1.3%   [122]                  
123    _model_10_m_m_0_attn_Reshape_output_0      |                  0.0%   |                  0.0%   [123, 124]             
124    _model_10_m_m_0_attn_Split_output_0        |                  0.0%   |                  0.0%   [125]                  
126    _model_10_m_m_0_attn_Reshape_2_output_0    |                  0.0%   |                  0.0%   [136, 137]             
127    _model_10_m_m_0_attn_MatMul_output_0       ||||||||||||      11.3%   |                  0.0%   [126, 128, 129, 130]   
128    _model_10_m_m_0_attn_pe_conv..v_output_0   |                  0.0%   |                  0.0%   [138]                  
130    _model_10_m_m_0_attn_Softmax_output_0      |                  0.0%   |                  0.0%   [132]                  
132    _model_10_m_m_0_attn_MatMul_1_output_0     ||||||||||||||||  14.5%   |                  0.0%   [127, 133, 134]        
133    _model_10_m_m_0_attn_Reshape_1_output_0    |                  0.0%   |                  0.0%   [135]                  
134    _model_10_m_m_0_attn_Add_output_0          |                  0.0%   |                  0.0%   [139]                  
135    _model_10_m_m_0_attn_proj_co..v_output_0   |                  0.1%   |                  0.6%   [140]                  
136    _model_10_m_m_0_Add_output_0               |                  0.0%   |                  0.0%   [141]                  
137    _model_10_m_m_0_ffn_ffn_0_co..v_output_0   |                  0.3%   ||                 1.3%   [142]                  
138    _model_10_m_m_0_ffn_ffn_0_ac..d_output_0   |                  0.0%   |                  0.0%   [143]                  
139    _model_10_m_m_0_ffn_ffn_0_ac..l_output_0   |                  0.0%   |                  0.0%   [144]                  
140    _model_10_m_m_0_ffn_ffn_1_co..v_output_0   |                  0.3%   ||                 1.3%   [145]                  
141    _model_10_m_m_0_Add_1_output_0             |                  0.0%   |                  0.0%   [146]                  
142    _model_10_Concat_output_0                  |                  0.0%   |                  0.0%   [147]                  
143    _model_10_cv2_conv_Conv_output_0           |                  0.6%   ||||               2.5%   [148]                  
144    _model_10_cv2_act_Sigmoid_output_0         |                  0.0%   |                  0.0%   [149]                  
145    _model_10_cv2_act_Mul_output_0             |                  0.0%   |                  0.0%   [150]                  
146    _model_11_Resize_output_0                  |                  0.0%   |                  0.0%   [151]                  
147    _model_12_Concat_output_0                  |                  0.0%   |                  0.0%   [152]                  
148    _model_13_cv1_conv_Conv_output_0           ||                 1.7%   |||                1.9%   [153]                  
149    _model_13_cv1_act_Sigmoid_output_0         |                  0.0%   |                  0.0%   [154]                  
150    _model_13_cv1_act_Mul_output_0             |                  0.0%   |                  0.0%   [155]                  
151    _model_13_Split_output_0                   |                  0.0%   |                  0.0%   [156]                  
152    _model_13_m_0_cv1_conv_Conv_output_0       |                  0.7%   |                  0.7%   [157]                  
153    _model_13_m_0_cv1_act_Sigmoid_output_0     |                  0.0%   |                  0.0%   [158]                  
154    _model_13_m_0_cv1_act_Mul_output_0         |                  0.0%   |                  0.0%   [159]                  
155    _model_13_m_0_cv2_conv_Conv_output_0       |                  0.7%   |                  0.7%   [160]                  
156    _model_13_m_0_cv2_act_Sigmoid_output_0     |                  0.0%   |                  0.0%   [161]                  
157    _model_13_m_0_cv2_act_Mul_output_0         |                  0.0%   |                  0.0%   [162]                  
158    _model_13_m_0_Add_output_0                 |                  0.0%   |                  0.0%   [163]                  
159    _model_13_Concat_output_0                  |                  0.0%   |                  0.0%   [164]                  
160    _model_13_cv2_conv_Conv_output_0           |                  0.9%   ||                 1.0%   [165]                  
161    _model_13_cv2_act_Sigmoid_output_0         |                  0.0%   |                  0.0%   [166]                  
162    _model_13_cv2_act_Mul_output_0             |                  0.0%   |                  0.0%   [167]                  
163    _model_14_Resize_output_0                  |                  0.0%   |                  0.0%   [168]                  
164    _model_15_Concat_output_0                  |                  0.0%   |                  0.0%   [169]                  
165    _model_16_cv1_conv_Conv_output_0           |||                2.3%   |                  0.6%   [170]                  
166    _model_16_cv1_act_Sigmoid_output_0         |                  0.1%   |                  0.0%   [171]                  
167    _model_16_cv1_act_Mul_output_0             |                  0.0%   |                  0.0%   [172]                  
168    _model_16_Split_output_0                   |                  0.0%   |                  0.0%   [173]                  
169    _model_16_m_0_cv1_conv_Conv_output_0       |                  0.7%   |                  0.2%   [174]                  
170    _model_16_m_0_cv1_act_Sigmoid_output_0     |                  0.0%   |                  0.0%   [175]                  
171    _model_16_m_0_cv1_act_Mul_output_0         |                  0.0%   |                  0.0%   [176]                  
172    _model_16_m_0_cv2_conv_Conv_output_0       |                  0.7%   |                  0.2%   [177]                  
173    _model_16_m_0_cv2_act_Sigmoid_output_0     |                  0.0%   |                  0.0%   [178]                  
174    _model_16_m_0_cv2_act_Mul_output_0         |                  0.0%   |                  0.0%   [179]                  
175    _model_16_m_0_Add_output_0                 |                  0.0%   |                  0.0%   [180]                  
176    _model_16_Concat_output_0                  |                  0.0%   |                  0.0%   [181]                  
177    _model_16_cv2_conv_Conv_output_0           |                  0.9%   |                  0.2%   [182]                  
178    _model_16_cv2_act_Sigmoid_output_0         |                  0.1%   |                  0.0%   [183]                  
179    _model_16_cv2_act_Mul_output_0             |                  0.0%   |                  0.0%   [184]                  
180    _model_17_conv_Conv_output_0               ||                 1.3%   ||                 1.4%   [205]                  
181    _model_23_cv2_0_cv2_0_0_conv..v_output_0   ||||||             5.2%   ||                 1.4%   [198]                  
182    _model_23_cv3_0_cv3_0_0_cv3_..v_output_0   |                  0.1%   |                  0.0%   [185]                  
183    _model_17_act_Sigmoid_output_0             |                  0.0%   |                  0.0%   [206]                  
184    _model_23_cv2_0_cv2_0_0_act_..d_output_0   |                  0.1%   |                  0.0%   [199]                  
185    _model_23_cv3_0_cv3_0_0_cv3_..d_output_0   |                  0.1%   |                  0.0%   [186]                  
186    _model_17_act_Mul_output_0                 |                  0.0%   |                  0.0%   [207]                  
187    _model_23_cv2_0_cv2_0_0_act_Mul_output_0   |                  0.0%   |                  0.0%   [200]                  
188    _model_23_cv3_0_cv3_0_0_cv3_..l_output_0   |                  0.0%   |                  0.0%   [187]                  
189    _model_18_Concat_output_0                  |                  0.0%   |                  0.0%   [208]                  
190    _model_23_cv2_0_cv2_0_1_conv..v_output_0   ||||||             5.2%   ||                 1.4%   [201]                  
191    _model_23_cv3_0_cv3_0_0_cv3_..v_output_0   |                  0.6%   |                  0.2%   [188]                  
192    _model_19_cv1_conv_Conv_output_0           |                  0.9%   ||                 1.0%   [209]                  
193    _model_23_cv2_0_cv2_0_1_act_..d_output_0   |                  0.1%   |                  0.0%   [202]                  
194    _model_23_cv3_0_cv3_0_0_cv3_..d_output_0   |                  0.1%   |                  0.0%   [189]                  
195    _model_19_cv1_act_Sigmoid_output_0         |                  0.0%   |                  0.0%   [210]                  
196    _model_23_cv2_0_cv2_0_1_act_Mul_output_0   |                  0.0%   |                  0.0%   [203]                  
197    _model_23_cv3_0_cv3_0_0_cv3_..l_output_0   |                  0.0%   |                  0.0%   [190]                  
198    _model_19_cv1_act_Mul_output_0             |                  0.0%   |                  0.0%   [211]                  
199    _model_23_cv2_0_cv2_0_2_Conv_output_0      |                  0.6%   |                  0.2%   [204]                  
200    _model_23_cv3_0_cv3_0_1_cv3_..v_output_0   |                  0.1%   |                  0.0%   [191]                  
201    _model_19_Split_output_0                   |                  0.0%   |                  0.0%   [212]                  
203    _model_23_cv3_0_cv3_0_1_cv3_..d_output_0   |                  0.1%   |                  0.0%   [192]                  
204    _model_19_m_0_cv1_conv_Conv_output_0       |                  0.7%   |                  0.7%   [213]                  
205    _model_23_cv3_0_cv3_0_1_cv3_..l_output_0   |                  0.0%   |                  0.0%   [193]                  
206    _model_19_m_0_cv1_act_Sigmoid_output_0     |                  0.0%   |                  0.0%   [214]                  
207    _model_23_cv3_0_cv3_0_1_cv3_..v_output_0   |                  0.6%   |                  0.2%   [194]                  
208    _model_19_m_0_cv1_act_Mul_output_0         |                  0.0%   |                  0.0%   [215]                  
209    _model_23_cv3_0_cv3_0_1_cv3_..d_output_0   |                  0.1%   |                  0.0%   [195]                  
210    _model_19_m_0_cv2_conv_Conv_output_0       |                  0.7%   |                  0.7%   [216]                  
211    _model_23_cv3_0_cv3_0_1_cv3_..l_output_0   |                  0.0%   |                  0.0%   [196]                  
212    _model_19_m_0_cv2_act_Sigmoid_output_0     |                  0.0%   |                  0.0%   [217]                  
213    _model_23_cv3_0_cv3_0_2_Conv_output_0      |                  0.3%   |                  0.1%   [197]                  
214    _model_19_m_0_cv2_act_Mul_output_0         |                  0.0%   |                  0.0%   [218]                  
216    _model_19_m_0_Add_output_0                 |                  0.0%   |                  0.0%   [219]                  
217    _model_19_Concat_output_0                  |                  0.0%   |                  0.0%   [220]                  
218    _model_19_cv2_conv_Conv_output_0           |                  0.9%   ||                 1.0%   [221]                  
219    _model_19_cv2_act_Sigmoid_output_0         |                  0.0%   |                  0.0%   [222]                  
220    _model_19_cv2_act_Mul_output_0             |                  0.0%   |                  0.0%   [223]                  
221    _model_20_conv_Conv_output_0               ||                 1.3%   ||||||||           5.7%   [244]                  
222    _model_23_cv2_1_cv2_1_0_conv..v_output_0   |||                2.6%   ||||               2.8%   [237]                  
223    _model_23_cv3_1_cv3_1_0_cv3_..v_output_0   |                  0.0%   |                  0.0%   [224]                  
224    _model_20_act_Sigmoid_output_0             |                  0.0%   |                  0.0%   [245]                  
225    _model_23_cv2_1_cv2_1_0_act_..d_output_0   |                  0.0%   |                  0.0%   [238]                  
226    _model_23_cv3_1_cv3_1_0_cv3_..d_output_0   |                  0.0%   |                  0.0%   [225]                  
227    _model_20_act_Mul_output_0                 |                  0.0%   |                  0.0%   [246]                  
228    _model_23_cv2_1_cv2_1_0_act_Mul_output_0   |                  0.0%   |                  0.0%   [239]                  
229    _model_23_cv3_1_cv3_1_0_cv3_..l_output_0   |                  0.0%   |                  0.0%   [226]                  
230    _model_21_Concat_output_0                  |                  0.0%   |                  0.0%   [247]                  
231    _model_23_cv2_1_cv2_1_1_conv..v_output_0   ||                 1.3%   ||                 1.4%   [240]                  
232    _model_23_cv3_1_cv3_1_0_cv3_..v_output_0   |                  0.3%   |                  0.3%   [227]                  
233    _model_22_cv1_conv_Conv_output_0           |                  0.9%   ||||||             3.8%   [248]                  
234    _model_23_cv2_1_cv2_1_1_act_..d_output_0   |                  0.0%   |                  0.0%   [241]                  
235    _model_23_cv3_1_cv3_1_0_cv3_..d_output_0   |                  0.0%   |                  0.0%   [228]                  
236    _model_22_cv1_act_Sigmoid_output_0         |                  0.0%   |                  0.0%   [249]                  
237    _model_23_cv2_1_cv2_1_1_act_Mul_output_0   |                  0.0%   |                  0.0%   [242]                  
238    _model_23_cv3_1_cv3_1_0_cv3_..l_output_0   |                  0.0%   |                  0.0%   [229]                  
239    _model_22_cv1_act_Mul_output_0             |                  0.0%   |                  0.0%   [250]                  
240    _model_23_cv2_1_cv2_1_2_Conv_output_0      |                  0.1%   |                  0.2%   [243]                  
241    _model_23_cv3_1_cv3_1_1_cv3_..v_output_0   |                  0.0%   |                  0.0%   [230]                  
242    _model_22_Split_output_0                   |                  0.0%   |                  0.0%   [251]                  
244    _model_23_cv3_1_cv3_1_1_cv3_..d_output_0   |                  0.0%   |                  0.0%   [231]                  
245    _model_22_m_0_cv1_conv_Conv_output_0       |                  0.1%   |                  0.3%   [255]                  
246    _model_22_m_0_cv2_conv_Conv_output_0       |                  0.1%   |                  0.3%   [252]                  
247    _model_23_cv3_1_cv3_1_1_cv3_..l_output_0   |                  0.0%   |                  0.0%   [232]                  
248    _model_22_m_0_cv1_act_Sigmoid_output_0     |                  0.0%   |                  0.0%   [256]                  
249    _model_22_m_0_cv2_act_Sigmoid_output_0     |                  0.0%   |                  0.0%   [253]                  
250    _model_23_cv3_1_cv3_1_1_cv3_..v_output_0   |                  0.1%   |                  0.2%   [233]                  
251    _model_22_m_0_cv1_act_Mul_output_0         |                  0.0%   |                  0.0%   [257]                  
252    _model_22_m_0_cv2_act_Mul_output_0         |                  0.0%   |                  0.0%   [254]                  
253    _model_23_cv3_1_cv3_1_1_cv3_..d_output_0   |                  0.0%   |                  0.0%   [234]                  
254    _model_22_m_0_m_m_0_cv1_conv..v_output_0   |                  0.3%   ||                 1.4%   [258]                  
255    _model_23_cv3_1_cv3_1_1_cv3_..l_output_0   |                  0.0%   |                  0.0%   [235]                  
256    _model_22_m_0_m_m_0_cv1_act_..d_output_0   |                  0.0%   |                  0.0%   [259]                  
257    _model_23_cv3_1_cv3_1_2_Conv_output_0      |                  0.1%   |                  0.1%   [236]                  
258    _model_22_m_0_m_m_0_cv1_act_Mul_output_0   |                  0.0%   |                  0.0%   [260]                  
260    _model_22_m_0_m_m_0_cv2_conv..v_output_0   |                  0.3%   ||                 1.4%   [261]                  
261    _model_22_m_0_m_m_0_cv2_act_..d_output_0   |                  0.0%   |                  0.0%   [262]                  
262    _model_22_m_0_m_m_0_cv2_act_Mul_output_0   |                  0.0%   |                  0.0%   [263]                  
263    _model_22_m_0_m_m_0_Add_output_0           |                  0.0%   |                  0.0%   [264]                  
264    _model_22_m_0_m_m_1_cv1_conv..v_output_0   |                  0.3%   ||                 1.4%   [265]                  
265    _model_22_m_0_m_m_1_cv1_act_..d_output_0   |                  0.0%   |                  0.0%   [266]                  
266    _model_22_m_0_m_m_1_cv1_act_Mul_output_0   |                  0.0%   |                  0.0%   [267]                  
267    _model_22_m_0_m_m_1_cv2_conv..v_output_0   |                  0.3%   ||                 1.4%   [268]                  
268    _model_22_m_0_m_m_1_cv2_act_..d_output_0   |                  0.0%   |                  0.0%   [269]                  
269    _model_22_m_0_m_m_1_cv2_act_Mul_output_0   |                  0.0%   |                  0.0%   [270]                  
270    _model_22_m_0_m_m_1_Add_output_0           |                  0.0%   |                  0.0%   [271]                  
271    _model_22_m_0_Concat_output_0              |                  0.0%   |                  0.0%   [272]                  
272    _model_22_m_0_cv3_conv_Conv_output_0       |                  0.1%   |                  0.6%   [273]                  
273    _model_22_m_0_cv3_act_Sigmoid_output_0     |                  0.0%   |                  0.0%   [274]                  
274    _model_22_m_0_cv3_act_Mul_output_0         |                  0.0%   |                  0.0%   [275]                  
275    _model_22_Concat_output_0                  |                  0.0%   |                  0.0%   [276]                  
276    _model_22_cv2_conv_Conv_output_0           |                  0.9%   ||||||             3.8%   [277]                  
277    _model_22_cv2_act_Sigmoid_output_0         |                  0.0%   |                  0.0%   [278]                  
278    _model_22_cv2_act_Mul_output_0             |                  0.0%   |                  0.0%   [279]                  
279    _model_23_cv2_2_cv2_2_0_conv..v_output_0   ||                 1.3%   ||||||||           5.7%   [295]                  
280    _model_23_cv3_2_cv3_2_0_cv3_..v_output_0   |                  0.0%   |                  0.1%   [280]                  
281    _model_23_cv2_2_cv2_2_0_act_..d_output_0   |                  0.0%   |                  0.0%   [296]                  
282    _model_23_cv3_2_cv3_2_0_cv3_..d_output_0   |                  0.0%   |                  0.0%   [281]                  
283    _model_23_cv2_2_cv2_2_0_act_Mul_output_0   |                  0.0%   |                  0.0%   [297]                  
284    _model_23_cv3_2_cv3_2_0_cv3_..l_output_0   |                  0.0%   |                  0.0%   [282]                  
285    _model_23_cv2_2_cv2_2_1_conv..v_output_0   |                  0.3%   ||                 1.4%   [298]                  
286    _model_23_cv3_2_cv3_2_0_cv3_..v_output_0   |                  0.1%   |                  0.6%   [283]                  
287    _model_23_cv2_2_cv2_2_1_act_..d_output_0   |                  0.0%   |                  0.0%   [299]                  
288    _model_23_cv3_2_cv3_2_0_cv3_..d_output_0   |                  0.0%   |                  0.0%   [284]                  
289    _model_23_cv2_2_cv2_2_1_act_Mul_output_0   |                  0.0%   |                  0.0%   [300]                  
290    _model_23_cv3_2_cv3_2_0_cv3_..l_output_0   |                  0.0%   |                  0.0%   [285]                  
291    _model_23_cv2_2_cv2_2_2_Conv_output_0      |                  0.0%   |                  0.2%   [301]                  
292    _model_23_cv3_2_cv3_2_1_cv3_..v_output_0   |                  0.0%   |                  0.0%   [286]                  
294    _model_23_cv3_2_cv3_2_1_cv3_..d_output_0   |                  0.0%   |                  0.0%   [287]                  
295    _model_23_Concat_output_0                  |                  0.0%   |                  0.0%   [302]                  
296    _model_23_cv3_2_cv3_2_1_cv3_..l_output_0   |                  0.0%   |                  0.0%   [288]                  
297    _model_23_cv3_2_cv3_2_1_cv3_..v_output_0   |                  0.0%   |                  0.2%   [289]                  
298    _model_23_dfl_Reshape_output_0             |                  0.0%   |                  0.0%   [303]                  
299    _model_23_cv3_2_cv3_2_1_cv3_..d_output_0   |                  0.0%   |                  0.0%   [290]                  
300    _model_23_dfl_Transpose_output_0           |                  0.0%   |                  0.0%   [304]                  
301    _model_23_cv3_2_cv3_2_1_cv3_..l_output_0   |                  0.0%   |                  0.0%   [291]                  
302    _model_23_dfl_Softmax_output_0             |                  0.2%   |                  0.0%   [305]                  
303    _model_23_cv3_2_cv3_2_2_Conv_output_0      |                  0.0%   |                  0.1%   [292]                  
304    _model_23_dfl_conv_Conv_output_0           |                  0.0%   |                  0.0%   [306]                  
306    _model_23_dfl_Reshape_1_output_0           |                  0.0%   |                  0.0%   [307, 308]             
307    _model_23_Concat_1_output_0                |                  0.0%   |                  0.0%   [293]                  
308    _model_23_Slice_output_0                   |                  0.0%   |                  0.0%   [310]                  
309    _model_23_Slice_1_output_0                 |                  0.0%   |                  0.0%   [309]                  
310    _model_23_Sigmoid_output_0                 |                  0.1%   |                  0.0%   [294]                  
312    _model_23_Add_1_output_0                   |                  0.0%   |                  0.2%   [311]                  
313    _model_23_Add_2_output_0                   |                  0.0%   |                  0.0%   [314]                  
314    _model_23_Sub_1_output_0                   |                  0.0%   |                  0.0%   [313]                  
315    _model_23_Div_1_output_0                   |                  0.0%   |                  0.0%   [315]                  
316    _model_23_Concat_2_output_0                |                  0.0%   |                  0.0%   [316]                  
317    _model_23_Mul_2_output_0                   |                  0.0%   |                  0.1%   [317]                  
318    output0                                    |                  0.0%   |                  0.0%   [318]                  
------ ------------------------------------------ ------------------------- ------------------------- ---------------------- 
macc=1,132,046,565 weights=10,392,528 act=6,144,000 ram_io=0

Generated files (7)
---------------------------------------------------------------------------------------- 
E:\VScodeProjects\QS\STM32H743IIT6\H743_QSPI_XIP_1\X-CUBE-AI\App\network_data_params.h   
E:\VScodeProjects\QS\STM32H743IIT6\H743_QSPI_XIP_1\X-CUBE-AI\App\network_data_params.c   
E:\VScodeProjects\QS\STM32H743IIT6\H743_QSPI_XIP_1\X-CUBE-AI\App\network_data.h          
E:\VScodeProjects\QS\STM32H743IIT6\H743_QSPI_XIP_1\X-CUBE-AI\App\network_data.c          
E:\VScodeProjects\QS\STM32H743IIT6\H743_QSPI_XIP_1\X-CUBE-AI\App\network_config.h        
E:\VScodeProjects\QS\STM32H743IIT6\H743_QSPI_XIP_1\X-CUBE-AI\App\network.h               
E:\VScodeProjects\QS\STM32H743IIT6\H743_QSPI_XIP_1\X-CUBE-AI\App\network.c               
